digame/app/models/example_custom_model.pth (torch, 65505 bytes, 18 tensors)

lstm.weight_ih_l0 f4 [128, 2]
000000 39 53 8f 3d a8 59 27 bd 30 45 04 3c 5a c8 33 3e
       0.06998295 -0.040856987 0.008073136 0.17556897
000010 a6 06 65 be 03 85 b3 3d 8e 26 9b bd 72 b6 41 3d
       -0.22365817 0.08765604 -0.07575713 0.047293134
000020 f2 59 c7 3c 60 86 b0 bd df 90 53 3d a3 2c d0 3b
       0.024334881 -0.0861938 0.05165183 0.0063529774
000030 14 d1 e8 bd 4d c7 b3 bd 58 f7 07 bc 06 3b b7 3b
       -0.113680035 -0.08778248 -0.008298717 0.005591753
000040 64 74 87 be 87 e8 19 be a5 2f 54 bc 44 14 62 bb
       -0.26455986 -0.15030108 -0.0129508125 -0.0034496943
000050 d4 52 21 3d bb 11 34 3e 5a 8e f7 bd ed 1b 0c 3e
       0.03938563 0.17584889 -0.12087698 0.13682528
000060 01 ab 08 bc 9f f9 fe 3c 33 6f 43 3d d9 45 f9 bc
       -0.008341552 0.031124888 0.04771347 -0.030428814
000070 f6 b8 01 be 11 83 ae 3d d5 cb 14 3d eb b9 ef bd
       -0.12668213 0.08521093 0.036327202 -0.11705383
000080 42 bc ef bd d8 23 f2 3d 4f 00 3d be 01 8e 5e bd
       -0.11705829 0.11823243 -0.18457149 -0.054334644
000090 f4 3d a1 bc d8 91 6b 3e b4 2f 5e be f2 0c bc 3a
       -0.019682862 0.23004854 -0.21697885 0.001434712
0000a0 88 dd e0 bc 94 f5 34 be 45 e6 7d 3b 35 98 55 be
       -0.027449384 -0.17671806 0.0038741988 -0.20858844
0000b0 da 6e b0 3c 05 26 11 bd 52 f1 8c bd 13 38 d8 3d
       0.021537233 -0.03543665 -0.06881966 0.1055757
0000c0 91 52 74 3d ea 3a 1e 3e 3d b8 b9 3d 07 09 89 bd
       0.059649054 0.15452161 0.09068344 -0.06691175
0000d0 d2 72 19 be 46 33 ec bc df 53 0f be 6b 97 46 bd
       -0.14985207 -0.028833043 -0.13996838 -0.048484247
0000e0 47 27 78 3d 48 13 03 be 3b 50 eb 3c 4c 77 50 be
       0.060584333 -0.12800324 0.02872478 -0.20358008
0000f0 b7 40 ab bd 72 b1 3f bd 6c 95 27 3e 4d 4e 38 3d
       -0.08361953 -0.046800084 0.16365594 0.04499655
000100 48 9c d5 bd a7 bd f1 3d 78 12 da bc 77 c7 0d 3e
       -0.10430199 0.118037514 -0.026620135 0.13845621
000110 16 8c 4a bd e8 d6 cf 39 30 fb 9e 3d 1d 82 47 be
       -0.049450003 0.00039642234 0.07762754 -0.19483228
000120 2d d6 3f bd 58 37 e0 bd 7d 07 b9 3d 88 c3 23 be
       -0.046835113 -0.10948056 0.090346314 -0.15992558
000130 5b 97 97 3d e6 e2 96 3c 4a ab 60 be 9a 51 52 3e
       0.07401916 0.01841874 -0.21940342 0.20538941
000140 35 ae e3 3c 94 4e 39 be 1d 84 d9 bc 0f 99 11 3b
       0.02779303 -0.18096381 -0.026552254 0.0022216474
000150 fd 77 1a 3d 1c 6d 26 be 70 ad 00 bd 89 d8 63 bd
       0.037712086 -0.1625256 -0.031415403 -0.055626426
000160 f3 22 20 be dd b7 36 3d 6b 8f 91 be 4d 49 04 3c
       -0.15638332 0.04460894 -0.28429732 0.008074117
000170 3e f4 09 bc 22 b4 17 3e f6 ab 85 3d 4e 45 b1 3d
       -0.008420048 0.14814809 0.065269396 0.08655797
000180 fb f7 54 3d 15 c4 7a bd 88 2a ab 3d 0d 89 32 bd
       0.051994305 -0.061222155 0.083577216 -0.043587733
000190 c2 39 0f be 26 63 ce 3d 9b 4a 3a 3b 17 01 9d bd
       -0.13986877 0.10077505 0.0028425816 -0.076662235
0001a0 7e 1c 0b bb 5e be b2 bd ff 3f ca bd 3b 25 0c bc
       -0.00212267 -0.08727716 -0.098754875 -0.008553798
0001b0 cc e4 9a bd fa 2b ff bc 68 7a 06 be 63 06 b9 bd
       -0.07563171 -0.0311489 -0.13132632 -0.09034421
0001c0 92 12 c8 3d 0d a8 86 bd 18 4e ad 3d 02 ba a5 bc
       0.09769167 -0.06575022 0.08462161 -0.020230297
0001d0 67 92 e1 bc 84 98 ea 3c 1c 15 7a 3d 37 52 bd bd
       -0.02753563 0.028637178 0.061055288 -0.09244197
0001e0 8b fa d7 3d 42 c0 2b be fd 27 38 3d ee 23 ab bd
       0.10545834 -0.1677256 0.04496001 -0.083564624
0001f0 3f 9c b0 3d 3b 6c 8d 3c 58 a1 82 be 02 03 83 bd
       0.086235516 0.017263522 -0.2551372 -0.06397058
000200 98 e0 cd 3d af 48 4a be 62 d2 8c 3b 34 77 b2 bd
       0.100526035 -0.19754289 0.0042975405 -0.087141424
000210 a5 91 d9 bc b6 c8 33 be e3 ee 08 3e 60 0f 5f 3e
       -0.026558707 -0.17557034 0.13372378 0.21783209
000220 5e b6 cc 3d 66 1b af bd cb b8 0f 3e 53 1f ff 3c
       0.09995721 -0.08550148 0.14035337 0.031142866
000230 1c da d1 bd 0b 7f b2 bd 3d b3 82 bc 3b 7b 85 3d
       -0.10246679 -0.08715638 -0.015954608 0.06517645
000240 86 cc 50 3d c8 e1 70 3d 64 47 ac 3d 8b 5a e3 3d
       0.0509763 0.05880907 0.08412054 0.11101254
000250 8f 04 9a bd 84 9e bb bd c6 a4 e2 3d 92 68 ad 3d
       -0.07520401 -0.09161094 0.11066584 0.08467211
000260 72 27 1e 3e 1b c2 b6 bd 15 09 9a 3d 40 9b 16 3e
       0.15444735 -0.089237414 0.075212635 0.1470766
000270 d4 43 a9 3c 58 40 ab 3d a7 cc af 3c dc 52 19 3e
       0.020662226 0.08361882 0.02145989 0.14973015
000280 bc 2b 4d be 45 74 15 3d cd ae 82 bd 89 5d c0 bd
       -0.20036215 0.036487836 -0.06380997 -0.093928404
000290 96 8c 82 3c d8 50 7f 3e b4 d8 0c 3e 1c 86 2f bd
       0.015936177 0.24933183 0.1375454 -0.042852506
0002a0 87 f8 cf 3d 22 68 ea bd f2 bc 02 3e f5 d4 09 be
       0.10154825 -0.11445643 0.1276739 -0.13460143
0002b0 f6 d0 59 3c 8a cd 93 3d cd e4 5e 3d 9a 0f 2f 3e
       0.013294449 0.07216938 0.05441742 0.17095795
0002c0 73 01 b2 3d 14 76 09 3e ad f2 3a bd 78 0c 26 3a
       0.08691683 0.1342395 -0.04564159 0.00063342554
0002d0 de 7c 12 3e fa 06 84 bd cd 19 ee ba 2a 21 b4 bd
       0.14305446 -0.06446643 -0.0018165648 -0.08795388
0002e0 00 ff c5 3d b5 e3 b7 3c 94 e3 b6 bd 97 72 f5 bd
       0.09667778 0.022447446 -0.08930126 -0.11984747
0002f0 99 14 2f 3e 41 a4 9d bb fa 50 bf 3d 8c ad 7d be
       0.17097701 -0.0048108404 0.09341617 -0.24773234
000300 a7 85 dc 3c e5 7d ae 3d 14 a2 1d be 38 1f 7d bb
       0.0269192 0.08520106 -0.15393859 -0.0038623344
000310 5a 07 9f bd 2b 26 2f 3d f1 b9 1a bc 48 8e 51 3c
       -0.07765074 0.04276101 -0.009443746 0.01279027
000320 ac 7c 73 3d 2d 49 33 bd 86 01 3e 3e 24 69 98 3c
       0.05944507 -0.043770958 0.18555269 0.018604822
000330 d4 90 9b 3c 78 47 0d be 91 f1 09 be 7a 21 14 bd
       0.018989958 -0.13796794 -0.13471057 -0.03616474
000340 b4 e7 47 be 81 dd 6a 3c 17 c8 cc 3c df e9 56 3d
       -0.19521981 0.014335037 0.024997754 0.05246913
000350 52 49 30 3e 83 77 07 be 1f 38 a8 3d 42 25 29 bd
       0.1721547 -0.13229184 0.08213829 -0.041295297
000360 f2 42 f3 bd db ed 5d 3e f5 8f 60 be b7 e4 4b 3e
       -0.11878003 0.21672766 -0.21929915 0.19911467
000370 1e bf 0e 3e e1 1c 22 bd 88 34 aa bd c2 16 57 bd
       0.13940093 -0.039578322 -0.08310801 -0.052511938
000380 1e 9c 13 bc 1b 6d cb bd 1b cb e3 bc f5 93 37 be
       -0.009009389 -0.099329196 -0.02780681 -0.17927535
000390 91 0a 0d bd 92 c1 bf 3c cd 8e 0f bd d4 21 77 bc
       -0.034433905 0.023407731 -0.035048295 -0.015083749
0003a0 71 65 1c be 82 a2 59 be c6 bf 38 be 49 6d 99 be
       -0.15273072 -0.21253398 -0.18041906 -0.2996619
0003b0 e5 45 80 bd f0 b4 bf bc 10 cf c9 bb 6c 7d 4e 3d
       -0.06263331 -0.023401707 -0.006158717 0.05041258
0003c0 f4 69 b3 bc 7a a8 cf bc 18 a2 14 3e 34 b3 eb 3b
       -0.021901108 -0.02534889 0.14514959 0.0071929935
0003d0 61 21 5e bd 69 cf bd bd 42 c3 37 3d 97 3f f5 3d
       -0.05423105 -0.09268076 0.044863947 0.119750194
0003e0 05 3c 8f 3d 6a 12 22 3e 26 e2 1c 3d 98 e0 d7 3a
       0.0699387 0.15827337 0.03830161 0.0016470132
0003f0 8b 45 3c bd 3b 27 06 3e fe fa 38 3e 8c 44 b8 bd
       -0.04596476 0.13100903 0.18064496 -0.08997449

lstm.weight_hh_l0 f4 [128, 32]
000000 03 25 a3 bd ac 38 78 bc 1a 57 f8 bc b6 d7 35 be
       -0.07966044 -0.01515023 -0.03031497 -0.17758068
000010 3b 13 1f 3c 74 11 2a be 7b df fa 3d 37 dc 66 bd
       0.009709175 -0.1660822 0.12249657 -0.056362357
000020 aa 21 7f bd 46 a6 0c 3d 57 8b d3 bc 6c 21 56 3d
       -0.062287964 0.03433826 -0.025823278 0.052277967
000030 45 ae e9 3d ea 4f 14 be 81 26 20 be f0 39 fc 3d
       0.114101924 -0.1448361 -0.15639688 0.12315738
000040 1d 16 00 3e ca ef a7 bd 53 7c 05 3d 4d f2 eb 3c
       0.12508436 -0.08200033 0.032589268 0.028802061
000050 ee 45 83 bc 9e 0e 5c 3d 3b 43 30 ba d9 a8 f0 bd
       -0.016024556 0.053724878 -0.00067238853 -0.11750955
000060 ab f3 8f 3c 40 22 15 bd fe 51 20 be 28 14 05 be
       0.017572245 -0.036409616 -0.15656278 -0.1299597
000070 b8 16 17 3d f7 f1 02 be 15 bf 05 3e 85 34 43 be
       0.0368869 -0.12787615 0.13061173 -0.19063003
000080 1e d1 5d bd 5a f5 6f bd 70 f3 b0 3d 6d d3 b6 bd
       -0.054154508 -0.058583595 0.08640182 -0.08927045
000090 f5 70 f4 3c d8 cb 94 bd e9 ca 0e bd f7 81 fd 3b
       0.029839018 -0.072654426 -0.03486148 0.0077364403
0000a0 c6 5f 0a be 08 1d 10 be be 31 39 bd fd 97 53 be
       -0.13513097 -0.14073575 -0.045213453 -0.20663448
0000b0 a9 4c 72 be 3f 0f 21 3d 8d 26 b6 3d c2 e7 10 be
       -0.23662056 0.03932118 0.08894072 -0.14150909
0000c0 7a 50 8a bd b4 f6 e5 3d 9e 64 1e 3d 12 4e 5b be
       -0.06753631 0.112286955 0.038670175 -0.214165
0000d0 b1 dc 88 3d d3 a1 c4 3d 66 9a e8 3d 19 51 cb 3d
       0.066827185 0.09601178 0.11357574 0.099275775
0000e0 aa 5d 98 bd 44 40 42 3e 52 dc c0 3c 57 b9 b3 bd
       -0.0743974 0.18969828 0.023542557 -0.08775585
0000f0 da 18 00 3e 1a a3 25 3e a6 34 b0 bd 06 c5 01 be
       0.1250948 0.161755 -0.08603792 -0.12672815
000100 d4 e8 01 be 4a ae cf bd 82 2d 0d 3d 7d 11 67 be
       -0.12686473 -0.10140665 0.034467228 -0.22565265
000110 56 af d9 bd bb c4 5c be 93 c6 4c bc 4d 91 81 bd
       -0.10629146 -0.21559422 -0.012498516 -0.06326542
000120 46 ac 26 3e 53 f1 31 be 73 ed a3 bd 9b 0a 06 be
       0.16276655 -0.17377214 -0.08004274 -0.13089983
000130 f6 1b ed bb 94 1a fe 3d a3 60 63 be 70 e2 f2 bd
       -0.007235999 0.12407413 -0.22204833 -0.11859596
000140 74 e8 09 be 2d e2 99 bc ae 34 dd bd ab 09 8b 3d
       -0.1346758 -0.018784607 -0.108010635 0.067889534
000150 9f 35 bc bd 1f 5c 4a be 33 7d 11 be 70 67 e3 3d
       -0.09189915 -0.19761704 -0.14207916 0.111037135
000160 c6 96 9d bd 88 59 69 3d 01 bf 0e be f9 3b 31 bd
       -0.076947734 0.05697015 -0.1394005 -0.043270085
000170 78 b4 38 bc 2e 6a 26 3d 32 bb dc bc 6d fe cf bd
       -0.011273496 0.040628605 -0.02694473 -0.1015595
000180 bd 78 69 be 54 72 e9 bd 85 d2 bf bc 66 8a 3f be
       -0.22799964 -0.113987595 -0.023415813 -0.18705139
000190 18 db 1f be fd fd ad bd a1 7c c6 bd ae 20 29 be
       -0.15610921 -0.0849571 -0.0969174 -0.16516373
0001a0 1a 18 95 3c 6b 64 ea 3c 98 63 b6 bd ce 5e 4e bd
       0.01819997 0.028612336 -0.08905715 -0.05038338
0001b0 2b 4a 13 3d 29 0a 09 3e 78 dc 00 3d 0d 4f a8 3d
       0.035959404 0.13382782 0.031460255 0.08218203
0001c0 c9 4f ff 3d 12 d3 f4 3d 6c e9 29 3e a7 cc 0f be
       0.1246639 0.11954321 0.1659295 -0.14042912
0001d0 dc 13 fc bd 6a dd 6e 3d ef 0d 29 3e 02 1e bd bd
       -0.123084754 0.058316626 0.16509221 -0.09234239
0001e0 22 c4 0a 3e 71 0d 49 3e 9c 61 7c 3d 6a 92 09 3e
       0.13551381 0.19634034 0.061616525 0.13434759
0001f0 d2 3d 51 3d d2 6c 46 3e c8 bf 03 3c 02 4c c6 3d
       0.051084347 0.19377449 0.00804133 0.09682466
000200 85 0a 88 3d 7d 94 5f be c0 ca 3a 3e b1 e4 ac bc
       0.066426314 -0.21833988 0.18241405 -0.021105142
000210 68 2f b6 3d 7f b6 83 be 42 4d 51 3e 54 7a 6e 3d
       0.08895761 -0.2572517 0.20439628 0.05822213
000220 12 ae 1c 3e da 9c 95 bd 55 f8 d7 3b 4a 42 46 be
       0.15300778 -0.07305308 0.006590883 -0.19361225
000230 24 b5 39 be 36 a4 6c bd a8 43 57 bd 6b 74 f0 bc
       -0.18135506 -0.05777379 -0.052554756 -0.029352387
000240 4c f7 9d bc b5 ef e1 3d 0b 08 ce 3c 1c 7a ff bd
       -0.01928296 0.110320486 0.02515032 -0.124744624
000250 ea 71 e2 3c 00 bf 38 bb 30 58 0c 3e c7 53 9f 3d
       0.02764221 -0.0028190017 0.13705516 0.07779651
000260 96 97 81 be 8a bf dc 3d a0 c3 95 bd 4b 4a b8 bd
       -0.25310963 0.10778721 -0.07312703 -0.08998545
000270 a5 1f 35 3e 5f 94 42 bc 16 5d d5 3c c8 65 fa bd
       0.17687853 -0.011876195 0.026045363 -0.122264445
000280 f1 cd a7 bd 04 7a 05 be e9 00 4a be 0c 49 3f 3e
       -0.08193577 -0.13034827 -0.1972691 0.18680209
000290 d1 8f 2c 3d e8 9d fd 3c 1e b4 7e be 46 ca cf 3c
       0.04212934 0.030959085 -0.24873397 0.025365006
0002a0 98 cf 63 3d c1 e5 c5 bc 68 7e e3 3d 59 8e ab bd
       0.0556179 -0.024157407 0.111080945 -0.0837676
0002b0 c7 f4 91 bd fc 17 fe bd d7 39 25 3e 02 81 99 bd
       -0.07126766 -0.124069184 0.16135345 -0.074953094
0002c0 07 c2 02 be 1e 1e 12 be dc 44 6d bd 53 27 18 be
       -0.12769328 -0.14269301 -0.057926998 -0.14858751
0002d0 21 40 91 3c ff 1f 69 3c 5c 7d f8 3a d0 b4 1e 3e
       0.017730774 0.01422882 0.0018958258 0.15498662
0002e0 2a 81 04 3e 4e fc be bd bd 70 4a bd d2 08 5a bd
       0.12939897 -0.09325467 -0.04942392 -0.053231068
0002f0 89 2f 1a be b1 56 36 be 95 0d 73 3e 25 f7 bc bc
       -0.15057196 -0.17806508 0.2373565 -0.023067066
000300 60 a3 59 bd ce 99 43 be 25 b8 9b 3c c5 89 2c be
       -0.053134322 -0.1910164 0.019008705 -0.1684943
000310 de 66 88 bd f5 96 cf 3d 36 37 14 3d 4a 04 1c 3e
       -0.06660245 0.10136215 0.036185466 0.15236011
000320 0d a2 57 be 14 ee f9 bc c4 69 38 bd 3e 02 4a be
       -0.21057911 -0.030509032 -0.04502274 -0.19727418
000330 ed f7 34 be 8f 2b 8f bd ae c7 6b bc 05 a0 01 bd
       -0.17672701 -0.0699073 -0.014390869 -0.031646747
000340 a7 e1 a0 3d df 2f cc 3d c0 10 a3 3c 5b dd 04 bd
       0.0785554 0.09970068 0.019905448 -0.032437664
000350 88 52 29 3d 2b 7b 41 bd 66 9d a0 3d eb 10 ac bd
       0.041338474 -0.047236603 0.07842521 -0.08401664
000360 2e 34 ae 3d fd df 29 bc 9e 97 bb bd 5f 40 3f be
       0.08506046 -0.010368344 -0.09159778 -0.186769
000370 26 e1 7c 3c a6 81 3d 3e ed 8a 3b 3c 63 55 c3 bd
       0.015434539 0.18506488 0.011446697 -0.095377706
000380 a7 37 13 3e 10 0a f3 3d a9 d4 43 3e fa aa 60 be
       0.14376698 0.11867154 0.19124092 -0.21940222
000390 41 4e 4b bc 5a d8 e5 bd 30 01 92 3d 38 b3 c1 bd
       -0.012408794 -0.112229064 0.07129133 -0.094580114
0003a0 52 b3 4b 3e 31 45 7d bc c1 19 6b 3e 77 3c 5c be
       0.19892624 -0.015458391 0.22959043 -0.2150744
0003b0 a9 02 a9 3d 37 29 a1 3d 1f 76 78 3d 35 2a f3 bd
       0.082524605 0.07869189 0.060659524 -0.11873285
0003c0 e0 15 bf bd 44 fa f2 bd 24 67 09 be c6 2a d0 3d
       -0.09330344 -0.11864141 -0.13418251 0.101644084
0003d0 44 be 67 bd 99 a7 cd 3d 17 e1 ce bd c8 d9 24 3c
       -0.056577936 0.10041732 -0.10101526 0.010061689
0003e0 bf dd 83 bd 11 00 ed bd d7 5c df bd bd e5 46 3e
       -0.06438779 -0.11572278 -0.1090638 0.19423576
0003f0 5a 83 5d 3e b1 e8 29 3e dc 0a 9b 3d f1 d7 ce bd
       0.21632138 0.16592671 0.07570431 -0.10099781

lstm.bias_ih_l0 f4 [128]
000000 4c d0 ee 3b 44 af 39 be 41 7f cb bd 0e f1 d6 bd
       0.0072880145 -0.18133265 -0.09936381 -0.10495196
000010 b1 69 ce 3d c3 6f 03 3b 1a 61 a3 bd 18 bf 5a 3d
       0.10078753 0.002005563 -0.07977505 0.053404897
000020 8e 88 68 be 80 1d 84 bd 67 81 3e be dd 75 70 3d
       -0.22708341 -0.06450939 -0.1860405 0.058706153
000030 62 e2 c3 bc 43 c5 38 bd 0b 5d c1 bd 86 bb 88 bd
       -0.023911659 -0.04511 -0.09441575 -0.06676392
000040 28 51 e2 bd 3e 8e 47 be d7 83 4a be d8 be 52 be
       -0.110506356 -0.19487855 -0.19776855 -0.20580614
000050 c6 ad 74 bd 10 99 e5 bc f3 d3 75 3d 1a a4 c6 3d
       -0.059736036 -0.028027087 0.060016584 0.09699269
000060 b3 f8 ec bd 6b 16 29 be 56 a5 a6 bc a5 76 af 3d
       -0.11570873 -0.16512458 -0.02034251 0.085675515
000070 66 ef 83 3d dd b3 07 be e3 f9 d8 3d 72 3e 5a b9
       0.06442146 -0.13252206 0.10594537 -0.00020813363
000080 3a c9 15 be ad b7 e0 3d c2 76 f1 bd 62 7f 48 3e
       -0.14627543 0.109725334 -0.117902294 0.19579843
000090 fd 31 84 be 4d 62 25 3e d9 04 dd 3c b1 18 f1 bd
       -0.25819388 0.1615078 0.02697985 -0.11772288
0000a0 43 e5 f7 bd 9a ad 8d 3d 4e 14 90 bd 7f 29 39 be
       -0.12104275 0.069178775 -0.07035123 -0.18082236
0000b0 03 5f 98 bd eb 91 a9 3d d0 d0 f2 3d 49 f9 1f be
       -0.07439997 0.08279785 0.11856234 -0.15622438
0000c0 6f 6a bc 3c 45 35 c9 bd 24 95 36 3c fe 40 96 be
       0.02299997 -0.098246135 0.011143956 -0.2934646
0000d0 05 74 10 bc 68 35 5a be 15 b0 4b bd 6c 53 29 bd
       -0.008816724 -0.21309435 -0.04972847 -0.041339323
0000e0 8b b6 a1 3c d1 29 43 3d 0e 9e eb 3a 01 f7 59 be
       0.019740364 0.0476473 0.0017976181 -0.21285631
0000f0 1b 6f 7b bd c2 b2 14 3e bc 41 a3 bd a9 61 50 be
       -0.061385255 0.14521316 -0.07971522 -0.20349754
000100 c2 83 65 be b5 2d 3a be 23 b9 96 3d 99 19 64 be
       -0.22413543 -0.18181498 0.07359531 -0.2227539
000110 05 96 ad bd 68 14 36 bd 46 3e 9d bd f6 14 e0 3d
       -0.084758796 -0.044453055 -0.07677893 0.10941498
000120 44 38 42 3a 12 39 57 be 75 50 f1 bd 71 53 d7 bd
       0.0007408897 -0.21017864 -0.11782924 -0.10513962
000130 bc f3 9a 3d bb 1c cc 3c d9 b5 4b 3c ba a2 11 be
       0.0756602 0.024916044 0.012433493 -0.14222232
000140 b6 39 2e bc c4 ed e6 3d fd 12 58 3a cc 78 02 3e
       -0.010633877 0.11275819 0.00082425756 0.12741393
000150 74 65 0e 3e 61 53 af bd c1 85 1d be 6f 0d b5 bd
       0.13905889 -0.08560825 -0.15383054 -0.08840453
000160 b7 6f 3b 3e 48 13 c6 b9 1a 44 01 bd 0c 75 d0 3d
       0.18304335 -0.0003777987 -0.031559087 0.10178575
000170 5b e8 36 be 6f 15 76 3d af ed 9b 3d 74 8b ef bd
       -0.17862074 0.060079034 0.07613694 -0.116965204
000180 a4 de dd bc 6b 2b 11 be b0 81 3e be 06 42 05 be
       -0.027083702 -0.14176719 -0.1860416 -0.13013467
000190 1d b1 07 bb 63 2f 12 3e 65 71 87 bd 23 b7 b7 3d
       -0.0020704933 0.14275889 -0.06613425 0.089704774
0001a0 05 93 ec 3d 90 77 2b 3c d7 3b 24 bd 6f fb 3b bd
       0.11551479 0.010465518 -0.04009613 -0.045894083
0001b0 9b 56 69 3d bf e0 56 be a1 65 ae 3d 42 66 10 be
       0.05696736 -0.20984171 0.08515478 -0.14101508
0001c0 c8 d5 6d bc 4d 4a 4f 3c 1e b9 5e be ab 70 8a be
       -0.014516301 0.012651992 -0.21750304 -0.27039084
0001d0 42 94 a9 bd a5 ab 00 be 77 7b 84 3d aa b2 8c 3d
       -0.08280231 -0.12565477 0.064688616 0.06870015
0001e0 f2 13 8b bd a1 aa 42 3d b6 5b f1 3d 1a fe ab bd
       -0.06790914 0.047526006 0.117850706 -0.083980754
0001f0 e0 68 05 be e2 29 28 3e eb ad 07 be 46 26 05 bd
       -0.13028288 0.16422227 -0.13249938 -0.032507204

lstm.bias_hh_l0 f4 [128]
000000 44 2d 7a bd b0 f1 47 be 5e 0b 48 bd e4 aa 7d 3b
       -0.061078325 -0.1952579 -0.048838966 0.0038706595
000010 82 cc f7 3c 4e c4 02 3e a2 e2 3c be 93 6a 2d be
       0.030248884 0.12770197 -0.18445829 -0.16935186
000020 f7 4a 69 3d 54 28 3a be 72 f3 3b 3c 76 24 31 3e
       0.056956258 -0.18179446 0.011471616 0.17299065
000030 95 9c b5 3d 7c 1b 0d be 5d 13 45 3e 1e 46 57 bd
       0.08867756 -0.13780016 0.19245668 -0.052557103
000040 b5 80 30 be 73 b5 6c be 14 70 b0 bd 65 f7 93 bc
       -0.17236598 -0.23116092 -0.08615127 -0.018062303
000050 f8 48 82 bd 86 9d 84 bc f3 95 88 3d f3 35 20 3e
       -0.06361574 -0.016188394 0.066692255 0.1564558
000060 f2 00 48 3d 02 bd ce 38 d1 c3 76 bd 6d 78 60 be
       0.048829027 9.858051e-05 -0.06024534 -0.21920939
000070 b0 42 79 bc 99 90 6c bd f5 c3 1e 3e e9 08 08 be
       -0.015213653 -0.057755087 0.15504439 -0.13284649
000080 12 ea 88 be 54 30 12 3e 42 b1 8a be 61 2c 4a 3e
       -0.2674108 0.14276248 -0.27088362 0.19743492
000090 71 9c 4f be 12 31 a9 3d 5d 72 c8 3d d2 bc b4 3b
       -0.20274521 0.082613125 0.09787438 0.005515673
0000a0 88 f7 9e 3b 4c 04 1b bd 13 b7 c2 bc 81 b1 1c bd
       0.0048512854 -0.037845895 -0.023768937 -0.03825522
0000b0 10 be f5 3d e6 66 5e be 37 94 07 3e ca 74 3c be
       0.11999142 -0.2171894 0.13240133 -0.18403926
0000c0 50 98 1d be 38 b7 07 3e 58 e3 61 3d 07 14 7a be
       -0.15390134 0.13253486 0.055148453 -0.24421702
0000d0 6d 3d 1b be de b1 01 be 7c ca be bd 99 94 67 bd
       -0.15160151 -0.12665507 -0.093159646 -0.0565382
0000e0 ae d9 10 be 59 12 5b 3c 4d 6b d8 3d aa 7b 10 be
       -0.14145538 0.013371074 0.10567341 -0.14109674
0000f0 0b f1 22 3d e6 cb a5 bd 5f 69 33 3e 4a 28 ac bc
       0.039780658 -0.08095531 0.17520665 -0.021015305
000100 03 a5 4b 3d 09 b8 a7 3d a0 43 00 3e db c6 0a bd
       0.049717914 0.08189399 0.12525797 -0.03388105
000110 bb 41 84 3d cb ab 69 3e 1e fd c2 3a 3d ba 3b 3d
       0.064578496 0.2281944 0.001487646 0.045831908
000120 80 77 66 be f7 b9 80 3d 1a bb 0b be 32 f0 50 3c
       -0.22506523 0.0628547 -0.13645592 0.0127525795
000130 aa 9e 3a 3d 00 56 80 bd 21 15 39 3e c4 7c 47 bd
       0.04556147 -0.06266403 0.18074466 -0.04870297
000140 19 0c ce 3b 8f 56 41 bd 82 ff 8a 3d 2c e6 da bd
       0.0062880632 -0.04720169 0.067870155 -0.10688433
000150 41 ca 4e bd 17 cb ad 3c 2b d1 33 bd 55 69 52 bd
       -0.050485853 0.021215005 -0.04390065 -0.051369984
000160 4d cb c5 3d 06 01 de 3d 84 9b 16 be c9 df 8b bd
       0.09657917 0.10840039 -0.14707762 -0.06829793
000170 44 da 27 be 4f 0f b8 3d 67 b2 60 bd 72 50 9a 3c
       -0.16391855 0.08987295 -0.054857638 0.018837187
000180 a2 29 85 bd 5a 5a 22 3d 64 77 87 bd bc cc ba bd
       -0.065020815 0.039636947 -0.06614569 -0.09121081
000190 89 a8 17 3c ff af 22 3e 34 a9 a4 bd 47 c0 c6 3c
       0.0092564905 0.1588745 -0.080400854 0.024261607
0001a0 29 9e f3 3d 40 29 05 bd c9 60 85 bc 3e 17 26 3e
       0.11895401 -0.032510042 -0.016281502 0.16219804
0001b0 5a c9 bd 3d 43 2f ab 3c 8a 65 6f bd f5 18 ef bd
       0.092669204 0.02089656 -0.058446445 -0.11674682
0001c0 6a d6 85 bc ca ba f6 3c 3c 20 09 be 2f 6f d7 bd
       -0.016337592 0.030118365 -0.13391203 -0.105192535
0001d0 e1 80 37 be c2 58 52 be 70 c5 b3 3d ea 2a 34 bd
       -0.17920257 -0.20541671 0.087778926 -0.04398624
0001e0 48 ae ed 3d da 82 1e be 5c a6 1f 3d b6 0a e9 bc
       0.11605507 -0.15479603 0.038977012 -0.02844749
0001f0 ec 2c 29 be 8c 92 a6 3d 96 98 17 be 3f b7 12 3e
       -0.16521043 0.0813342 -0.148043 0.14327715

fc.weight f4 [5, 32]
000000 28 d3 12 3c b8 be e5 bd 5b 02 17 3c 0f 84 a5 bd
       0.008961476 -0.11218017 0.00921687 -0.08081829
000010 c8 4c c5 bd b6 1b 3a 3e c2 19 ec bd 32 bc d3 3c
       -0.096337855 0.18174633 -0.115283504 0.025846574
000020 f8 bc 99 bd d0 18 97 bc 38 61 59 3d 32 fe 4b 3e
       -0.07506746 -0.018444449 0.05307123 0.19921187
000030 f4 c7 58 3d 6b dc 15 bd b0 a1 21 3e 73 0c 3c 3e
       0.052925065 -0.03658716 0.15784335 0.18364124
000040 23 9b 27 be 6e aa 4e 3d b7 83 bb bd 6e f9 ec 3c
       -0.16367774 0.050455503 -0.09155982 0.028927531
000050 25 73 8c bd e3 09 6c bb 2e e2 b8 bc 18 29 f0 3d
       -0.068578996 -0.0036016635 -0.022568788 0.11726588
000060 bd 4c 0f 3e 77 a7 4e be 35 bc fc 3d 54 aa 10 bd
       0.13994117 -0.2018107 0.12340585 -0.035318688
000070 81 49 a1 bc 1e 6f 17 be 27 b2 cc 3d ca f8 44 3d
       -0.01968837 -0.14788482 0.09994917 0.048088826
000080 b0 a8 a4 3d 40 9b 0f bc 09 25 e6 3d fb 02 05 be
       0.08039987 -0.008765042 0.11237533 -0.12989418
000090 9d 61 af 3d 7f cf dc 3c 88 2b d6 bd c5 94 0f bd
       0.0856354 0.02695441 -0.10457522 -0.035053987
0000a0 e8 11 d6 ba c6 47 6b bd a8 16 01 3d 1b 9b b1 bd
       -0.0016332241 -0.057441495 0.031515747 -0.08672162
0000b0 ed 86 fd bc bc 8b a9 bd 99 4c b6 bd c8 57 f6 3d
       -0.030948127 -0.08278605 -0.089013286 0.12028462
0000c0 75 12 06 bd 3e 19 d4 3c cd d3 bf 3d b4 2c 44 3d
       -0.032732446 0.025890943 0.0936657 0.047894195
0000d0 d9 71 2e 3d 5c bb 45 be 23 7b b2 3d ae af 13 be
       0.042589042 -0.19309753 0.08714893 -0.14422485
0000e0 51 ef 3e bc 19 82 a0 3d d2 71 9f 3d 31 7b f2 bb
       -0.011653737 0.07837314 0.077853814 -0.0073999395
0000f0 f1 d7 43 be 3c 93 90 3b bf c3 83 3d 23 31 1d 3e
       -0.19125344 0.004412083 0.0643382 0.15350775
000100 da 18 cd bd 34 ff 29 3d 92 be ab bd 05 2d 6a 3c
       -0.10014506 0.041503146 -0.08385958 0.01429296
000110 4f 55 e0 3d f8 bd 43 be c2 91 46 3e fa 91 7a bb
       0.10953771 -0.19115436 0.1939154 -0.0038233981
000120 37 b6 48 3e 5e 6d bb bd 9f be 9e 3d fb b8 32 3e
       0.1960076 -0.091517195 0.07751202 0.17453377
000130 87 fe bb 3d 8d 62 c7 3d 9a c6 12 be c3 cc c8 3d
       0.091794066 0.09735594 -0.14333573 0.0980468
000140 01 fa 86 bd 09 fb 35 3d dd 01 a6 3d 54 31 e3 3c
       -0.06590653 0.04442886 0.08105824 0.027733482
000150 a3 43 07 be 55 65 f2 bd 03 30 cf 3c b6 b8 92 3d
       -0.13209395 -0.11835734 0.025291448 0.07164137
000160 94 c9 6d ba d7 97 f9 3d 70 36 4a be de 59 ab bd
       -0.000907087 0.12187164 -0.19747329 -0.0836675
000170 55 36 ee 3d 44 99 ae bd 72 87 96 3d 8d 5f 0a be
       0.11631457 -0.08525327 0.07350053 -0.13513012
000180 bc aa a7 bb 04 42 8d bb 3f 59 d7 bd 25 4c 75 be
       -0.0051167887 -0.004310848 -0.10515069 -0.23954828
000190 7d 8a 52 bd 1a 55 4a be 81 9f d1 3c 5a de d2 bb
       -0.051401604 -0.19759026 0.025588753 -0.006435198
0001a0 2c 69 e7 bd fa 8e 41 be 55 0c 30 3e 84 f3 0e be
       -0.11299357 -0.18902197 0.17192204 -0.13960081
0001b0 94 65 13 3d b0 2c 53 be 10 9d 2d bc 99 2a f8 3d
       0.035985544 -0.20622516 -0.010596529 0.121175
0001c0 85 c0 b6 3d ee 4f 6f 3b e5 8f 67 bb 1f ae 85 bd
       0.08923439 0.0036516148 -0.003533357 -0.065273516
0001d0 29 d6 01 3e 6a a4 47 bb cd dc ae bc 56 8d f9 bd
       0.12679352 -0.0030462989 -0.02134552 -0.12185161
0001e0 f5 03 1e bc af ba a3 3d 21 d5 d5 bd ec e8 81 bd
       -0.009644498 0.079945914 -0.10441042 -0.063432544
0001f0 cc ee 2a 3d 22 a7 44 3d 49 88 0d 3e 2b 8d 0f be
       0.04173164 0.048010953 0.1382152 -0.14018695
000200 f3 dd 46 3e 09 f3 95 3d 2c 65 a6 3d 24 d3 1b bd
       0.19420604 0.07321746 0.08124766 -0.038043156
000210 06 40 a4 bc e1 30 93 bd f2 91 7c 3c e7 65 eb bd
       -0.02005006 -0.07187057 0.015415655 -0.11494046
000220 f8 7e 93 3d 16 b7 0f be e6 30 a5 3d f4 36 7f bd
       0.07201952 -0.14034685 0.08065967 -0.062308267
000230 ef bc 23 be 40 88 02 be 11 37 8a bd b3 db cf 3d
       -0.15990041 -0.12747288 -0.06748784 0.10149326
000240 43 24 83 bd e9 87 bf 3d 29 7c c9 bc db 0f f3 bd
       -0.06403401 0.09352095 -0.024595337 -0.118682586
000250 1c 74 a9 3d 90 bf 1c 3e d0 b9 f1 bd bc 50 41 be
       0.08274099 0.1530745 -0.11803019 -0.18878454
000260 48 dc 0b be 53 c4 bd bd 23 2e d1 bc b6 11 46 3b
       -0.1365825 -0.092659615 -0.025534695 0.003022296
000270 d6 cd 4e 3e 90 ba 9d bc 22 a8 9e bd 84 a6 d8 bb
       0.20195708 -0.019253999 -0.077469125 -0.006611647

fc.bias f4 [5]
000000 22 39 52 bb 8f d2 40 bd 59 24 02 3e de 66 03 3e
       -0.003207751 -0.047075804 0.12709178 0.1283221
000010 15 45 0b 3c
       0.008500357

exp_avg f4 [128, 2]
000000 6b 37 5a 39 d6 fb 0d 3a 5f 12 d1 b8 c8 dc 43 38
       0.00020810745 0.00054162496 -9.9693185e-05 4.669724e-05
000010 4b af ea 38 b6 38 89 38 94 2d 3e ba ec 86 95 b9
       0.0001119064 6.543232e-05 -0.00072547165 -0.0002852002
000020 44 46 86 39 b1 95 44 b8 13 59 7b bb 8d a4 5d ba
       0.00025610824 -4.6869452e-05 -0.0038352653 -0.0008455001
000030 a8 de 84 ba 79 8c e9 b9 db 9d a4 38 8d e5 43 38
       -0.0010137158 -0.00044545883 7.849532e-05 4.670541e-05
000040 e5 45 69 39 d1 bc 61 39 0b e3 84 39 80 c7 76 38
       0.0002224665 0.00021528012 0.00025346162 5.883677e-05
000050 46 07 11 b9 31 2a f2 b8 8d b5 d4 39 89 60 62 b9
       -0.00013830987 -0.00011547318 0.00040571057 -0.00021589002
000060 8a 66 c8 b8 ad 51 84 b9 05 04 10 3a 0a 5e 2d b8
       -9.5558426e-05 -0.00025237855 0.0005493763 -4.1333995e-05
000070 fd c4 d1 ba e6 ff 27 ba 55 f3 2c 39 b8 f8 a1 b6
       -0.0016004142 -0.0006408676 0.00016493846 -4.8271286e-06
000080 34 b2 8b ba 9a b4 fd b9 a4 96 2f 39 fd 9a ea 37
       -0.0010657967 -0.0004839048 0.00016745419 2.7967146e-05
000090 50 80 b9 39 08 d9 2e 39 71 30 4d 3a eb 86 43 39
       0.0003538155 0.00016674784 0.0007827348 0.0001864691
0000a0 4c f0 e9 39 9a ea 83 b8 18 47 d6 39 39 34 8f 38
       0.00044620258 -6.290265e-05 0.0004087023 6.8284986e-05
0000b0 5c 28 be 39 72 68 07 39 24 25 25 3a a8 8f 16 3a
       0.00036269694 0.00012913512 0.0006299785 0.00057434523
0000c0 2e 4a 8c ba 89 3e 39 ba a6 4d 0a 37 e9 a2 97 b9
       -0.001070326 -0.00070665084 8.24352e-06 -0.00028922342
0000d0 18 1e 61 3a 7e e2 58 39 c2 02 c8 38 3b 85 d7 b5
       0.0008587553 0.0002068374 9.537257e-05 -1.6057523e-06
0000e0 f6 74 29 3a 19 b5 66 39 45 b5 79 39 56 32 27 37
       0.0006464267 0.00022001973 0.00023814019 9.965695e-06
0000f0 ab 98 48 3a ab bf 9e 39 2a 28 f7 39 c3 44 8b b8
       0.0007652144 0.00030278912 0.00047141436 -6.6408444e-05
000100 90 8d 66 3a 0d 57 19 39 17 81 45 38 5d 0a f9 37
       0.0008794898 0.00014623646 4.7088684e-05 2.9687939e-05
000110 9d 87 83 38 41 96 a3 38 d3 21 45 b9 bc 3c fd 38
       6.271827e-05 7.800433e-05 -0.00018799985 0.00012075293
000120 fa ee b0 38 66 76 14 b6 01 f9 84 bb 95 a9 1a ba
       8.436847e-05 -2.2122636e-06 -0.004058004 -0.00058999035
000130 1c ca 1b ba cd 1f 62 b9 dd 66 47 39 3d 18 5e 38
       -0.00059428974 -0.00021564886 0.00019016438 5.29515e-05
000140 dd 5a ea b8 e1 5d ec 38 53 45 80 38 32 ca 8a 38
       -0.00011174914 0.00011270843 6.116428e-05 6.6180146e-05
000150 ab ee 47 b9 cc 7f e1 b8 64 7b 8f 39 8e 05 13 39
       -0.0001906703 -0.0001075264 0.0002736702 0.00014021082
000160 de 87 ba b9 3a c3 4a b9 44 a0 bf 39 09 7a 5b b6
       -0.00035577914 -0.00019336949 0.00036549766 -3.2704577e-06
000170 36 13 84 ba 7a 06 df b9 ff 07 2f 39 99 8d 2e 38
       -0.0010076526 -0.000425387 0.0001669228 4.1616706e-05
000180 74 1f e1 b9 dd 11 f8 b8 d8 17 0e 39 50 20 2e 38
       -0.0004293878 -0.00011828889 0.00013551058 4.1514926e-05
000190 80 af d5 38 b7 7f dd 38 ae 6f 72 39 49 0f d8 38
       0.00010189321 0.0001056189 0.00023120522 0.0001030253
0001a0 c3 35 19 3a 67 b2 74 b9 bb 82 da 39 96 5f 17 39
       0.0005844498 -0.00023336113 0.00041677602 0.0001443609
0001b0 b4 ba f0 39 66 b7 77 38 f1 0a 08 3a ef de 2c 39
       0.00045915472 5.9060192e-05 0.00051896187 0.00016486247
0001c0 10 95 36 ba 84 4c 0b ba eb 7d a4 39 31 82 e6 b8
       -0.0006964961 -0.0005313831 0.00031374334 -0.00010991505
0001d0 30 fa 1a b9 68 e7 87 b8 81 02 ca 38 3d 49 05 38
       -0.00014779787 -6.4804044e-05 9.632577e-05 3.177788e-05
0001e0 b4 16 e7 39 2f f2 0e 3a e9 77 7f 39 f3 50 71 38
       0.0004407667 0.0005452958 0.00024363365 5.7534267e-05
0001f0 df 6c 4e 3a 76 8b 8a 39 49 4e 0c 39 70 f7 bf b8
       0.00078744994 0.00026425318 0.00013380604 -9.1536785e-05
000200 f9 42 01 bc 2a 07 5a ba 7d 99 a8 3a 0a 3e e2 b9
       -0.007889503 -0.00083171076 0.0012863126 -0.00043152302
000210 df ef 12 bb cf 5f 97 b9 6c 2d cf bb 32 6c 1e bb
       -0.0022420806 -0.00028872347 -0.0063225534 -0.0024173376
000220 7b 84 ff 3a 07 a4 bd b8 af 70 2e bc 17 eb 7d ba
       0.0019494438 -9.042775e-05 -0.010646983 -0.0009686215
000230 bb ea bb 3a 47 ec 82 3a 9e f1 f7 3a 7f 73 1d 3a
       0.0014336923 0.0009988629 0.0018916612 0.0006006285
000240 8e 10 82 39 7d bb 34 ba 6d fe 0b 39 de 81 c6 39
       0.00024807866 -0.0006894393 0.00013350854 0.00037862262
000250 81 d7 ad 3a 07 04 39 3a 35 61 a3 ba db 25 81 3a
       0.0013263078 0.000705779 -0.0012464883 0.0009853201
000260 9d 56 8d ba 1a f9 70 ba 62 1b 37 bb 4c cf 6b b7
       -0.0010783259 -0.00091923925 -0.0027939905 -1.4055357e-05
000270 cf 9c d2 bb 40 6a e2 b9 b0 5c 6e b9 c6 55 84 b9
       -0.0064273844 -0.00043185242 -0.00022731978 -0.00025240908
000280 3a 08 3e 3b 29 98 de 39 9c fb f1 39 ed b0 fa b6
       0.0028996603 0.00042456508 0.00046154566 -7.4711775e-06
000290 24 a4 e0 39 30 7d 8f b5 67 c3 e2 3a af 54 8c 3a
       0.00042846904 -1.0690765e-06 0.0017300666 0.001070639
0002a0 e7 43 8f 3a 0b e4 62 ba 45 88 88 ba 9b e5 b1 b9
       0.0010930271 -0.0008655197 -0.0010416588 -0.0003393114
0002b0 01 b5 65 3b 36 a3 89 3a 0a 41 cc 3b 06 e0 63 3b
       0.0035050514 0.0010500911 0.006233339 0.003477098
0002c0 a9 bf 20 bb 9f 28 91 ba ed 67 87 3c 83 09 a7 3b
       -0.00245283 -0.0011074728 0.016529048 0.0050975694
0002d0 c2 8d 67 3b 64 eb 02 3b a3 c5 b6 39 99 31 8f b7
       0.0035332297 0.001997673 0.00034860996 -1.7070024e-05
0002e0 4b e6 8b b8 14 54 21 bb 65 97 37 3b 6d 10 8a b7
       -6.670932e-05 -0.0024616765 0.0028013822 -1.645853e-05
0002f0 ab 71 5c 3b c9 2e 01 3b 1e 14 03 bb ad 33 d3 b8
       0.0033637087 0.0019711724 -0.0020001004 -0.000100708894
000300 8a 04 01 3a 37 f0 d5 39 e1 ba 4a b8 76 0e a6 38
       0.0004921636 0.000408055 -4.8334598e-05 7.9181904e-05
000310 42 12 28 39 f6 c9 03 39 44 b1 df b9 83 dc 89 b9
       0.0001602853 0.0001256837 -0.00042665948 -0.0002629497
000320 69 25 cd 39 4c 23 5c b8 38 8a 99 bb c5 ff 1e ba
       0.0003912852 -5.248496e-05 -0.0046856664 -0.00060653343
000330 4f af 91 ba e3 70 1f ba 0d 7d 28 39 e9 03 f3 37
       -0.0011114868 -0.000608219 0.00016068314 2.8969678e-05
000340 c9 b8 c0 b8 20 56 81 39 f3 99 33 39 57 a8 16 38
       -9.189692e-05 0.00024668965 0.00017128121 3.5919566e-05
000350 3e 11 71 b8 b6 be 52 b8 81 d2 89 39 b0 65 3b 39
       -5.7474936e-05 -5.0245515e-05 0.00026287514 0.00017871591
000360 61 71 09 ba f4 83 d1 b9 21 ad 73 3a 78 d8 97 36
       -0.000524303 -0.000399619 0.00092955126 4.525351e-06
000370 34 b1 ac ba f0 da 16 ba 23 ca bb 39 20 67 cf 37
       -0.0013175369 -0.000575467 0.00035818023 2.4724344e-05
000380 72 be a0 ba fa 35 46 b9 b8 87 6e 39 b6 23 b5 38
       -0.0012263788 -0.0001890286 0.00022748008 8.637404e-05
000390 58 71 d1 39 a9 d7 f6 38 43 fc 30 3a 61 ff 3a 39
       0.00039948034 0.00011770364 0.0006751457 0.00017833478
0003a0 68 17 87 3a 4c a4 65 b9 0f 01 00 3a 91 1b c5 39
       0.0010306658 -0.00021900347 0.000488297 0.00037595307
0003b0 5b 98 15 3a ec 00 c7 39 f8 75 4c 3a 1d 70 fc 39
       0.00057066017 0.00037956925 0.0007799561 0.00048148716
0003c0 ba 1f e5 ba 0b 44 d1 ba 73 50 bb 38 45 5a d8 b8
       -0.0017480769 -0.0015965713 8.93184e-05 -0.000103164966
0003d0 0f 34 90 39 79 81 56 b9 f6 48 a9 38 df 2c 9f 37
       0.00027504607 -0.00020456863 8.072138e-05 1.8975172e-05
0003e0 92 73 bd 39 80 c3 09 b9 59 8d cd 39 00 19 61 38
       0.00036134996 -0.00013138168 0.0003920596 5.3667463e-05
0003f0 80 98 af 3a 0c d7 a9 b7 53 61 c7 39 84 a2 0f b7
       0.0013396889 -2.0246509e-05 0.0003802875 -8.561303e-06

exp_avg_sq f4 [128, 2]
000000 5f 95 6b 34 dc 0e 56 33 bc 5c 87 33 98 a1 82 32
       2.1940421e-07 4.9839272e-08 6.303296e-08 1.5207476e-08
000010 ed 54 d8 33 64 6b 89 32 3c 6e 59 34 9c 31 4e 33
       1.0073732e-07 1.5997735e-08 2.0249803e-07 4.8008232e-08
000020 cf f7 03 35 a5 5c 19 33 2c d3 9c 36 00 15 c3 34
       4.916191e-07 3.5707348e-08 4.673746e-06 3.633686e-07
000030 ad 4e 0c 36 b2 87 0e 34 00 c4 55 33 6b b6 6d 31
       2.090742e-06 1.3274146e-07 4.9771188e-08 3.4591732e-09
000040 6c db 42 34 8f 4b f6 32 d6 5a 94 34 fc 6a 7b 32
       1.8147483e-07 2.867253e-08 2.763324e-07 1.4634448e-08
000050 77 d9 7a 35 c6 93 5f 33 88 50 1f 35 0a 7d 81 33
       9.344871e-07 5.2055633e-08 5.9349304e-07 6.029775e-08
000060 9c 59 39 35 f1 ce 62 33 d1 93 3b 34 af f6 b9 32
       6.904827e-07 5.2807938e-08 1.7469507e-07 2.1649013e-08
000070 95 df 23 36 88 5f 84 34 58 e2 df 33 00 f8 38 32
       2.4419035e-06 2.4656424e-07 1.04254184e-07 1.0766598e-08
000080 ef 34 0d 36 03 96 24 34 18 54 ba 33 bb c9 87 32
       2.1041449e-06 1.5328264e-07 8.6765965e-08 1.5807805e-08
000090 7c aa af 34 57 85 95 32 08 a6 b0 33 6d 4e 39 32
       3.2720334e-07 1.7406519e-08 8.2258396e-08 1.0786249e-08
0000a0 7d 34 8f 35 8c fb 8c 33 36 2e 69 35 b2 64 64 33
       1.0669606e-06 6.565014e-08 8.686651e-07 5.317697e-08
0000b0 a2 27 83 35 d9 74 49 33 2e 6e 22 35 2a b3 c6 33
       9.771795e-07 4.690523e-08 6.0510035e-07 9.252683e-08
0000c0 54 e1 02 36 62 f8 2e 34 7e c9 a5 35 c0 22 c2 33
       1.9502668e-06 1.6295374e-07 1.23521e-06 9.04015e-08
0000d0 16 b1 03 36 d5 ec 4e 34 b5 8c 8a 32 99 08 2a 31
       1.9623599e-06 1.9271404e-07 1.61293e-08 2.4743143e-09
0000e0 34 03 06 35 1d 55 65 33 7c 6c 8f 34 7d e1 b5 32
       4.992355e-07 5.3395627e-08 2.6714758e-07 2.1173713e-08
0000f0 2d 66 1e 35 40 37 35 33 93 3a ff 34 00 b3 aa 33
       5.900827e-07 4.2192596e-08 4.754007e-07 7.948802e-08
000100 48 08 cf 33 a1 b0 a1 32 09 88 07 33 fe 08 8d 31
       9.640695e-08 1.8823188e-08 3.155586e-08 4.1046624e-09
000110 b5 ad 0e 33 51 24 f4 30 87 19 c6 32 dc 36 87 31
       3.3219937e-08 1.7763658e-09 2.3061842e-08 3.935254e-09
000120 89 dd 83 34 9d 3e c9 32 98 7a 80 36 88 6d f1 34
       2.456184e-07 2.3427953e-08 3.828969e-06 4.4969443e-07
000130 59 ba 3c 35 c5 9b 86 33 6d f9 10 33 b0 e2 20 31
       7.030663e-07 6.2681956e-08 3.3754464e-08 2.3411921e-09
000140 bc e7 29 34 1d ee 70 32 a4 95 fa 33 e5 06 b1 31
       1.5823656e-07 1.4023979e-08 1.1668752e-07 5.152162e-09
000150 39 5c 2b 35 d7 cc 3b 33 0c 46 c6 33 1a ce 0c 32
       6.3836666e-07 4.372563e-08 9.232835e-08 8.195935e-09
000160 9e 19 a3 34 1c 95 ee 32 66 c6 bc 33 96 0f 28 32
       3.0379755e-07 2.7774654e-08 8.790521e-08 9.782431e-09
000170 d6 e9 03 36 38 a9 5b 34 2d 36 36 33 59 d6 10 31
       1.9656632e-06 2.0457526e-07 4.242445e-08 2.10766e-09
000180 3a fd 16 35 9b 84 8b 33 d1 c0 c7 32 f2 fd 01 31
       5.624785e-07 6.496813e-08 2.3254332e-08 1.8916322e-09
000190 23 6e 83 34 bf 0b 0c 32 f4 53 8b 32 13 38 78 31
       2.4480786e-07 8.151743e-09 1.6219907e-08 3.6120624e-09
0001a0 67 30 0c 35 86 ed 2b 33 c1 f3 8a 34 79 8c c1 32
       5.22245e-07 4.0030066e-08 2.5881857e-07 2.2532037e-08
0001b0 92 52 b5 35 92 44 93 33 f2 c2 5b 34 2e 84 39 32
       1.3509582e-06 6.857694e-08 2.0466885e-07 1.07984715e-08
0001c0 46 70 d1 35 6a 2f 21 34 8d 20 45 35 a4 89 b3 33
       1.5604389e-06 1.5011543e-07 7.3435587e-07 8.360374e-08
0001d0 b7 eb 52 35 0b 1a 9c 33 80 c2 20 32 bb 54 97 2f
       7.8574107e-07 7.269053e-08 9.35745e-09 2.7526945e-10
0001e0 e5 72 76 35 c5 e7 5d 33 f2 33 fe 33 ec 5f c1 31
       9.1809335e-07 5.1666365e-08 1.18372455e-07 5.6279443e-09
0001f0 42 32 e5 34 d3 9f 58 33 ad a2 cf 33 8f 1d 34 32
       4.269114e-07 5.043678e-08 9.668779e-08 1.04841e-08
000200 4b 59 22 37 cd 13 1a 36 fd 38 c2 36 de d2 0f 35
       9.676743e-06 2.2959314e-06 5.788285e-06 5.3578503e-07
000210 ec cb 9a 36 5a 5e 36 35 af 89 2d 37 c2 99 25 35
       4.6132973e-06 6.7937583e-07 1.03436605e-05 6.1691037e-07
000220 fa e8 7d 37 95 5d d4 35 64 56 50 38 d8 6b 83 36
       1.5134219e-05 1.5822467e-06 4.9671522e-05 3.916659e-06
000230 75 a7 96 37 5d 31 c7 35 88 cd c4 36 5e 7f 12 35
       1.7959372e-05 1.4841022e-06 5.865182e-06 5.457458e-07
000240 8f 28 28 37 f3 ad 48 35 a0 5a 7a 37 53 f2 c5 35
       1.0023024e-05 7.4758935e-07 1.49222615e-05 1.4748169e-06
000250 db 01 6f 37 17 d5 88 35 36 f8 d1 37 2b 70 85 36
       1.4245942e-05 1.0194807e-06 2.5030324e-05 3.976767e-06
000260 f5 7b 50 36 0d b8 0c 35 fe 25 61 37 e8 d1 81 35
       3.1066568e-06 5.2421893e-07 1.3419891e-05 9.67234e-07
000270 25 5a 1d 38 f5 94 72 36 41 74 91 36 84 42 b7 34
       3.751567e-05 3.6147514e-06 4.3348705e-06 3.4134803e-07
000280 6c 1a 8b 36 d8 a9 26 35 a7 c3 89 37 a2 c7 4e 35
       4.1455987e-06 6.2086974e-07 1.642278e-05 7.7031484e-07
000290 91 4d 96 36 a0 4f b3 34 af 1d f3 35 3e 14 ac 34
       4.4793783e-06 3.3399283e-07 1.811355e-06 3.2052225e-07
0002a0 8f 2b 07 37 be 4e 1c 35 f0 22 42 37 63 44 a3 35
       8.056769e-06 5.8229114e-07 1.1571436e-05 1.216435e-06
0002b0 40 8e 16 38 0f d7 11 36 2b f9 3e 38 5f 1e c1 36
       3.5895268e-05 2.1731864e-06 4.5531586e-05 5.755384e-06
0002c0 40 07 69 37 88 7d b3 35 f5 2e e6 38 48 2b 38 37
       1.388957e-05 1.3373074e-06 0.00010976001 1.0977332e-05
0002d0 b3 f4 aa 37 6a e0 57 36 9e 5e bc 36 47 f7 23 35
       2.0379526e-05 3.2168123e-06 5.6138515e-06 6.108207e-07
0002e0 ea 9f 4d 38 77 57 12 36 71 c2 9f 37 2d 39 d5 35
       4.902474e-05 2.1806607e-06 1.904482e-05 1.5886377e-06
0002f0 60 43 95 36 89 8e 6a 35 3f c8 36 38 1a 71 7b 36
       4.4483895e-06 8.737921e-07 4.3578675e-05 3.7467748e-06
000300 94 86 80 34 88 20 5b 33 63 95 f7 33 86 ed d7 32
       2.3939776e-07 5.1019498e-08 1.1529007e-07 2.5137307e-08
000310 a0 80 b5 33 ea 85 38 32 89 36 ea 33 f1 fb a8 32
       8.451866e-08 1.0740658e-08 1.0906394e-07 1.9672344e-08
000320 03 f1 93 35 49 e0 d5 33 41 b1 be 36 22 4f 8d 35
       1.1022497e-06 9.959383e-08 5.6830763e-06 1.0528349e-06
000330 d8 11 e0 35 78 25 61 34 32 1b ba 33 10 7c 12 32
       1.6694494e-06 2.0968389e-07 8.666247e-08 8.526527e-09
000340 6d 78 90 34 eb e3 5c 33 18 15 79 34 50 c5 90 32
       2.6909711e-07 5.1430032e-08 2.3197606e-07 1.6853534e-08
000350 64 63 35 35 f2 86 bf 33 93 f7 a7 34 55 46 00 33
       6.7572387e-07 8.918677e-08 3.1286308e-07 2.986629e-08
000360 08 8c 8c 35 7c e4 e1 33 b0 a1 d2 34 2f d8 8f 33
       1.0471567e-06 1.051894e-07 3.923319e-07 6.69828e-08
000370 3d 07 0a 36 de 04 ed 34 86 93 50 34 8b 68 9d 32
       2.0567816e-06 4.414823e-07 1.9425178e-07 1.8324746e-08
000380 5d fb cd 35 79 b2 a0 34 d2 b9 cc 32 be 53 05 32
       1.5346847e-06 2.9932178e-07 2.3833227e-08 7.76066e-09
000390 bb ff 38 35 5e 6e 67 33 63 05 95 33 a0 e9 51 32
       6.891748e-07 5.3884257e-08 6.939333e-08 1.2218521e-08
0003a0 25 92 23 36 89 29 a3 34 7a 16 c2 35 df a4 54 34
       2.437396e-06 3.0391337e-07 1.4460668e-06 1.9804018e-07
0003b0 c6 40 d3 35 20 2d 49 34 ab 77 13 35 63 01 9e 33
       1.5739577e-06 1.8736e-07 5.493591e-07 7.3577006e-08
0003c0 9e 14 87 36 26 77 1b 35 73 6f 85 35 b6 52 52 34
       4.0257137e-06 5.7915383e-07 9.941708e-07 1.9587864e-07
0003d0 97 eb c8 35 14 af 48 34 29 7f 44 32 4e 4a 81 30
       1.4969727e-06 1.8690145e-07 1.1437614e-08 9.407104e-10
0003e0 f1 e2 f0 35 e8 19 a6 34 bd 6b 33 34 95 39 8c 32
       1.7947442e-06 3.093876e-07 1.6709869e-07 1.632433e-08
0003f0 2f 9c d2 35 1a 67 df 34 96 8f d3 34 77 06 39 33
       1.5691675e-06 4.1612003e-07 3.9406285e-07 4.307955e-08

exp_avg f4 [128, 32]
000000 ed a2 83 b7 0d ec 80 b7 3b 89 97 36 13 81 60 b6
       -1.5692285e-05 -1.5368709e-05 4.5161264e-06 -3.3453732e-06
000010 83 b7 94 36 b1 10 b7 38 07 83 f7 b7 99 e5 18 37
       4.4321073e-06 8.729229e-05 -2.9505709e-05 9.113363e-06
000020 88 ec 81 b7 b2 c8 84 b5 a2 44 01 b8 ce f2 e2 b5
       -1.5488142e-05 -9.893176e-07 -3.0819916e-05 -1.6908978e-06
000030 9c 21 0b 38 72 75 38 b6 a6 d0 51 38 79 1c 07 b7
       3.3171484e-05 -2.7486499e-06 5.0023802e-05 -8.053256e-06
000040 1a e7 a8 b7 e7 5f 79 b5 6a 55 8b 37 2d 56 4f 37
       -2.0134776e-05 -9.2899285e-07 1.6609865e-05 1.2358226e-05
000050 b4 6e bc 37 bb d0 16 37 91 8a 77 b7 1e c4 59 35
       2.2462897e-05 8.989296e-06 -1.475461e-05 8.112419e-07
000060 65 49 70 38 9c 6f 16 b5 df 97 5a 37 b8 b5 82 b6
       5.7288813e-05 -5.604177e-07 1.3029173e-05 -3.8954568e-06
000070 ff 39 e9 b7 ce 48 0a 35 69 c0 ec 37 b9 bb 09 b6
       -2.7802771e-05 5.151495e-07 2.822299e-05 -2.052386e-06
000080 33 7d 42 b6 1d cf 8f b6 9e ca a2 b5 30 68 3b 33
       -2.8981128e-06 -4.2858433e-06 -1.212891e-06 4.363409e-08
000090 9d dd 5d 35 4f df 4c 37 44 b6 b0 b6 3c a2 88 36
       8.2651405e-07 1.2211341e-05 -5.2664273e-06 4.0720024e-06
0000a0 e3 63 31 b6 89 3a 0a 36 f1 22 29 b7 99 92 8a 36
       -2.6433197e-06 2.0597674e-06 -1.008132e-05 4.1297867e-06
0000b0 bc 42 8d 36 80 94 c5 b4 ab 49 3b 37 25 07 77 35
       4.2098964e-06 -3.6802157e-07 1.1163221e-05 9.2025067e-07
0000c0 c2 b7 b3 b6 78 44 13 b6 74 5e c5 36 74 05 72 36
       -5.356008e-06 -2.194456e-06 5.8820533e-06 3.6063984e-06
0000d0 8c af 0a 36 c2 74 96 35 85 88 74 b6 c0 64 f4 b4
       2.0665784e-06 1.1209852e-06 -3.6438298e-06 -4.5521847e-07
0000e0 a5 eb 4f 37 c9 de 9f 35 17 87 87 b6 92 8f 13 b5
       1.2393027e-05 1.1911262e-06 -4.03904e-06 -5.497069e-07
0000f0 01 2a b1 b6 ee 01 e4 34 05 7c 4a 36 3e b9 2b 36
       -5.279901e-06 4.2469713e-07 3.0172534e-06 2.558881e-06
000100 6f 98 b4 36 cf ca c9 35 91 a8 a4 b6 9b 9c 42 37
       5.3821636e-06 1.5034692e-06 -4.9072046e-06 1.1599764e-05
000110 4a c9 bd 36 d7 e4 82 37 ac 8a c7 b6 9c 5d e6 b4
       5.656072e-06 1.560377e-05 -5.9468057e-06 -4.2908948e-07
000120 dc 20 e4 36 ea 72 17 37 37 87 82 b7 ed d0 2e 37
       6.798755e-06 9.027057e-06 -1.5560172e-05 1.04198525e-05
000130 d2 89 4d 36 8e 3b c7 36 d1 e2 ea 36 7a a6 a7 36
       3.0627602e-06 5.9375952e-06 7.0001483e-06 4.9963683e-06
000140 7d 4c fe b6 a0 10 94 b6 a3 5e 64 36 28 c6 b6 35
       -7.5786943e-06 -4.412679e-06 3.4029733e-06 1.3617728e-06
000150 a4 5e 27 b6 47 3d 06 36 70 c1 18 35 cc c1 e7 36
       -2.4940027e-06 2.0003224e-06 5.69059e-07 6.9068974e-06
000160 34 bd 2f 37 a2 23 c6 b6 2f 1c ee 36 54 fb ad b5
       1.0474865e-05 -5.905008e-06 7.0962337e-06 -1.296265e-06
000170 48 85 8b 36 a8 63 42 b7 c6 9d 1d 37 a6 de af 36
       4.158039e-06 -1.1586504e-05 9.394664e-06 5.241326e-06
000180 74 01 08 38 cf 83 41 37 9a 98 11 b7 31 c7 ca 37
       3.242628e-05 1.15343855e-05 -8.678204e-06 2.4173032e-05
000190 49 05 56 37 b3 69 84 37 47 89 c6 b6 f9 67 73 b7
       1.27566245e-05 1.5784846e-05 -5.916841e-06 -1.4508137e-05
0001a0 b4 21 b8 37 d3 4a 72 37 b8 3e 63 b6 fe f6 50 37
       2.1950204e-05 1.4441745e-05 -3.3862143e-06 1.24552735e-05
0001b0 39 9e 81 b7 ff af 23 37 1d 65 32 b7 3e ae 55 36
       -1.5451677e-05 9.756534e-06 -1.0633169e-05 3.1840896e-06
0001c0 e5 23 d2 b6 a8 12 01 b7 ab bb 8b b7 52 07 4d 36
       -6.2626664e-06 -7.693343e-06 -1.6657481e-05 3.0551641e-06
0001d0 82 f5 8c b6 e6 68 cf 36 e1 6a 86 37 40 82 96 36
       -4.200906e-06 6.1812925e-06 1.6023814e-05 4.4855115e-06
0001e0 d3 b4 89 b6 04 c0 25 b7 13 f8 c6 37 d0 31 39 35
       -4.103969e-06 -9.8794735e-06 2.3718958e-05 6.899036e-07
0001f0 6b eb e0 37 06 fe d4 b7 d3 2c 89 36 ab 6e 25 38
       2.6812506e-05 -2.5390658e-05 4.0881364e-06 3.9442133e-05
000200 c7 c4 fd 36 c0 b1 34 35 b2 38 c2 36 57 67 6e b7
       7.5628955e-06 6.7313886e-07 5.7882507e-06 -1.4209966e-05
000210 a3 8e 21 37 04 28 b0 37 03 43 0d b7 18 38 62 36
       9.629558e-06 2.0999469e-05 -8.419857e-06 3.3709275e-06
000220 68 86 42 b7 43 a9 c4 b6 2e d6 3c b7 7e 2a e8 b6
       -1.1594595e-05 -5.86096e-06 -1.1255541e-05 -6.9190855e-06
000230 08 a1 9a 37 57 3c d5 b6 45 59 20 37 26 52 04 b7
       1.8433217e-05 -6.354919e-06 9.557528e-06 -7.88694e-06
000240 76 76 f7 b6 c7 7a a0 36 2b 9b 4a b5 1f 4a 8c 36
       -7.3749643e-06 4.7826647e-06 -7.5476663e-07 4.180954e-06
000250 06 ba 9c 37 3e 1b d8 36 9e 6a 37 b7 37 17 20 b7
       1.8683273e-05 6.440473e-06 -1.0932474e-05 -9.542148e-06
000260 60 3c 8f 37 5e b6 d7 35 c8 8c fd 36 86 a6 bd 35
       1.7075043e-05 1.6071824e-06 7.5563767e-06 1.4130062e-06
000270 79 8e 0a b7 19 9a 8d 36 3d 9d 31 37 14 16 7b 37
       -8.258613e-06 4.220067e-06 1.0586632e-05 1.4965906e-05
000280 72 1c ee 38 21 71 d4 38 3f 7f e0 b7 d1 f2 f2 b7
       0.00011354023 0.0001013002 -2.6762134e-05 -2.8961718e-05
000290 b9 dd 5f 37 84 49 09 ba f2 fa 51 39 8d 0f 4f b8
       1.334346e-05 -0.000523709 0.00020025278 -4.936713e-05
0002a0 bd cc d3 38 9a 89 5e b7 67 00 84 39 f0 e1 a5 b7
       0.000100993995 -1.3264269e-05 0.00025177302 -1.9774743e-05
0002b0 93 32 53 b9 1a ee 61 38 11 98 a9 b9 2a 71 58 37
       -0.00020141368 5.386593e-05 -0.0003234749 1.2900951e-05
0002c0 8b e4 07 39 a5 42 83 36 93 3e e8 b8 53 01 2f b8
       0.00012959742 3.9118627e-06 -0.000110742774 -4.1724485e-05
0002d0 3f 40 0c b9 18 c0 ec b7 4f bb fb 38 9e 3b 91 b8
       -0.00013375374 -2.8222843e-05 0.000120035016 -6.925243e-05
0002e0 69 ed cd b9 27 d4 23 38 f0 d6 16 b9 0c 26 b8 37
       -0.0003927753 3.905981e-05 -0.00014385185 2.1952226e-05
0002f0 48 14 3e 39 f4 ef 59 38 50 a9 4a b9 bb e0 46 38
       0.00018127367 5.1960305e-05 -0.00019327295 4.7416175e-05
000300 7a ce be 37 ad 5b dc 37 2b 9f d8 b6 c4 ec b0 b7
       2.2745913e-05 2.6268734e-05 -6.455831e-06 -2.1091088e-05
000310 04 b4 e5 35 34 c2 03 b9 dc 15 32 38 8f ad 0a b7
       1.7114221e-06 -0.0001256548 4.2458865e-05 -8.265851e-06
000320 d7 7c fc 37 18 54 5e b5 2a 08 52 38 ab f6 1d b6
       3.0098874e-05 -8.2823817e-07 5.0075505e-05 -2.3538403e-06
000330 d8 a2 2f b8 79 4c 7e 36 08 41 ac b8 11 ea 28 37
       -4.187491e-05 3.7893462e-06 -8.213712e-05 1.0068078e-05
000340 65 ba d9 37 5c be 3e 36 94 19 b7 b7 1e 5f f3 b6
       2.5955213e-05 2.842301e-06 -2.182721e-05 -7.2530374e-06
000350 da 77 e9 b7 7a ea 0f b7 ed 0e ce 37 fc 36 2b b7
       -2.7831575e-05 -8.5780575e-06 2.4564064e-05 -1.0205196e-05
000360 84 04 d3 b8 d4 11 86 b6 0e 0f dd b7 1a 4d be 36
       -0.00010062105 -3.9955867e-06 -2.6352263e-05 5.671417e-06
000370 a3 bf 94 37 43 30 d9 37 f8 3f fb b7 12 4d 6b 37
       1.7732213e-05 2.589089e-05 -2.995132e-05 1.4025036e-05
000380 79 f3 e5 b6 ca 65 d2 b6 52 a1 02 b6 26 64 87 36
       -6.853076e-06 -6.2703375e-06 -1.946541e-06 4.0349723e-06
000390 88 7b fa b4 df 9e d0 37 d1 91 14 b7 3c 00 b1 36
       -4.665601e-07 2.4869512e-05 -8.855438e-06 5.2750383e-06
0003a0 8e 3d a4 b6 07 ef b8 36 19 5c 71 b7 05 76 8b 36
       -4.894747e-06 5.5114538e-06 -1.4386163e-05 4.156262e-06
0003b0 fe f9 0f 37 ee 2b 0e b4 6b 5a ac 37 ce 1c 57 36
       8.58167e-06 -1.3240762e-07 2.0546102e-05 3.2054263e-06
0003c0 43 ff e5 b6 bb 50 0c b6 01 d5 22 37 4b 57 1b 36
       -6.854448e-06 -2.0908617e-06 9.705546e-06 2.314761e-06
0003d0 61 13 08 36 9a 35 50 b5 61 96 9c b6 d2 b0 be 36
       2.027686e-06 -7.756404e-07 -4.6666687e-06 5.683026e-06
0003e0 e3 79 bc 37 07 2c 32 b4 8c ca 12 36 50 e1 19 b6
       2.2468104e-05 -1.6593559e-07 2.1873593e-06 -2.2929926e-06
0003f0 c4 f6 f6 b6 c4 85 b1 b6 2b 91 0b 37 c0 d0 82 b6
       -7.3600986e-06 -5.2905834e-06 8.318845e-06 -3.8986036e-06
