models/predictive_model.pth (torch, 624649 bytes, 30 tensors)

lstm.weight_ih_l0 f4 [256, 2]
0.027243596 -0.09049749 0.016896067 0.054633904 0.06658705 0.0683338 -0.04091174 0.07354597
0.087591924 0.06585669 -0.07921061 0.10277957 0.0061302623 0.11234508 -0.08992241 -0.04287956
0.0862778 0.065611504 -0.036061842 -0.024294619 -0.085085526 -0.16160956 0.09412186 0.12049282
-0.1499363 0.08669894 -0.07827821 -0.03369153 0.040365312 -0.107511684 -0.054883868 -0.08587925
-0.0034102101 -0.12466148 -0.09530499 0.054942995 -0.08119538 -0.06238168 0.047277164 0.060776908
-0.025182515 0.0356676 -0.01202423 0.056424476 0.02534024 -0.04974926 -0.123934455 -0.09610914
-0.064006984 -0.047550656 -0.015967363 -0.1447342 0.06217726 -0.017526343 0.112268426 -0.039176688
-0.023598751 -0.032296527 0.039694216 0.031068802 0.13721141 0.122281514 -0.044687893 0.0551065
0.1336537 0.15344939 -0.0123451445 -0.0467498 -0.015123245 0.06343657 -0.0056456686 0.07986062
-0.11480863 0.01745577 -0.09004591 0.0001075177 -0.08846323 0.036635328 0.122868955 0.011443897
-0.114004865 -0.14031626 -0.093319304 -0.0774496 -0.056777254 -0.015037415 0.089417584 0.09734892
-0.11178417 0.013090765 0.06732977 -0.012948503 -0.013627173 0.1509769 -0.0033933404 -0.12985092
0.049957525 -0.080638826 0.006828987 -0.11009508 0.01723666 0.09747778 -0.086120196 -0.040367994
0.026870407 -0.04484849 0.12298912 -0.067534454 -0.06967024 -0.111040495 0.027676785 -0.027098415
-0.1277697 0.10606015 -0.09624169 0.05039621 -0.12359101 0.03767208 -0.021578455 -0.05643358
-0.13186051 0.043243 0.03642291 0.13148607 0.0026078955 -0.0652604 -0.10785259 0.07159335
-0.16157937 0.022767747 -0.0046725073 -0.01499385 0.036216374 0.09400313 0.03921292 -0.12353343
-0.043064922 -0.082102254 0.041557416 -0.050164986 -0.06356324 -0.18875793 -0.09513178 0.1264797
0.10468734 0.023916027 -0.0861442 0.056559507 0.05598889 -0.05752 -0.06584569 -0.01466875
-0.15888499 0.13986905 0.059905898 -0.023986587 -0.118075274 0.058772255 -0.009376501 0.053669423
-0.09103103 0.07764678 0.014637413 -0.120288275 -0.07913971 -0.13607125 -0.15486723 0.061955545
-0.07547294 -0.07361611 -0.13619325 0.09579498 0.001038523 0.116134375 -0.15274337 0.07374158
0.063414365 -0.18135458 0.037944723 -0.04603787 -0.03467111 -0.024337767 -0.060489442 0.04059875
0.08546173 -0.18548726 0.058320902 -0.13182053 0.067299336 0.2059073 0.083412595 -0.002959847
0.13472413 -0.0020389855 -0.12806399 0.03239289 -0.04452342 0.01359722 -0.01605806 -0.13407372
0.08864699 -0.022981532 0.023724321 -0.12523496 0.0040832376 -0.23294257 0.024292722 -0.028748484
-0.11622033 -0.08368735 -0.020185491 -0.03232175 0.03605696 0.13731755 -0.01659628 0.041644312
-0.12957434 -0.10884143 -0.08106914 0.12263057 0.00057768717 -0.0013563939 0.10890004 -0.17025822
0.05918764 -0.027110819 -0.089309536 0.10939665 0.018745106 0.080636986 0.028271342 0.05545764
-0.10092941 -0.07111884 -0.022228174 -0.1252619 -0.048290566 -0.06983243 -0.12775697 -0.07252201
-0.057042155 0.009501625 -0.050496627 -0.097634256 -0.02669512 -0.12374836 -0.10178165 -0.011426077
-0.03974613 0.004375427 -0.12625815 -0.17238364 -0.12969077 0.03730448 -0.08711083 0.1288396
00000000: f62d df3c bf56 b9bd 9f69 8a3c cdc7 5f3d
00000010: cb5e 883d 97f2 8b3d 1293 27bd 459f 963d
00000020: 6563 b33d dfdf 863d 2c39 a2bd 187e d23d
00000030: 5ee0 c83b 2d15 e63d 3e29 b8bd 7aa2 2fbd
00000040: 6ab2 b03d 535f 863d 95b5 13bd 8205 c7bc
00000050: 5241 aebd fa7c 25be f6c2 c03d f1c4 f63d
00000060: e788 19be 378f b13d 5350 a0bd 2100 0abd
00000070: 1956 253d 162f dcbd e8cd 60bd 76e1 afbd
00000080: d57d 5fbb 854e ffbd 432f c3bd e80b 613d
00000090: c349 a6bd ef83 7fbd b3a5 413d 35f1 783d
000000a0: 904b cebc 3018 123d 4701 45bc 5a1d 673d
000000b0: 5696 cf3c e1c5 4bbd 59d1 fdbd ded4 c4bd
000000c0: 1816 83bd 7ac4 42bd fdcd 82bc 3435 14be
000000d0: 95ad 7e3d 6893 8fbc fdec e53d bc77 20bd
000000e0: 2b52 c1bc 5d49 04bd 6796 223d 0084 fe3c
000000f0: 2681 0c3e bb6e fa3d a70a 37bd 5ab7 613d
00000100: 84dc 083e d621 1d3e 4a43 4abc b87c 3fbd
00000110: 7dc7 77bc 08eb 813d 4dff b8bb f78d a33d
00000120: c920 ebbd 67ff 8e3c fd69 b8bd 207b e138
00000130: 362c b5bd ed0e 163d b8a2 fb3d 2f7f 3b3c
00000140: 627b e9bd 11af 0fbe 311e bfbd e59d 9ebd
00000150: 448f 68bd 7d5f 76bc 9120 b73d df5e c73d
00000160: 19ef e4bd a67a 563c 31e4 893d f525 54bc
00000170: 8244 5fbc b099 1a3e ce62 5ebb a4f7 04be
00000180: 43a0 4c3d f825 a5bd b2c5 df3b 8879 e1bd
00000190: e533 8d3c 6ea2 c73d c95f b0bd e958 25bd
000001a0: 541f dc3c 0db3 37bd b8e1 fb3d 814f 8abd
000001b0: 45af 8ebd 3369 e3bd 6dba e23c 7ffd ddbc
000001c0: 0fd6 02be 1036 d93d 5d1a c5bd 426c 4e3d
000001d0: 491d fdbd 0a4e 1a3d 4dc5 b0bc e626 67bd
000001e0: 7106 07be 921f 313d 3030 153d 49a4 063e
000001f0: 3ae9 2a3b 3fa7 85bd d2e1 dcbd 899f 923d
00000200: 1075 25be 6d83 ba3c d51b 99bb c4a8 75bc
00000210: 9f57 143d b784 c03d ba9d 203d 18ff fcbd
00000220: d864 30bd 3a25 a8bd 1c38 2a3d cd79 4dbd
00000230: 722d 82bd c249 41be 73d4 c2bd e583 013e
00000240: 5166 d63d 8beb c33c 5f6c b0bd f1aa 673d
00000250: 9b54 653d 179a 6bbd 1bda 86bd 3255 70bc
00000260: bfb2 22be d539 0f3e e35f 753d 857f c4bc
00000270: 73d1 f1bd 2dbb 703d e59f 19bc 78d4 5b3d
00000280: 7a6e babd 4605 9f3d c3d1 6f3c b359 f6bd
00000290: 0014 a2bd 4356 0bbe 8495 1ebe 19c5 7d3d
000002a0: 8f91 9abd 0bc4 96bd 3e76 0bbe 2930 c43d
000002b0: 0d1f 883a dcd7 ed3d c268 1cbe d305 973d
000002c0: 64df 813d 04b5 39be ed6b 1b3d 3592 3cbd
000002d0: 4b03 0ebd ff5f c7bc c7c3 77bd e04a 263d
000002e0: 8f06 af3d 5ff0 3dbe e6e1 6e3d f6fb 06be
000002f0: 3cd4 893d 5dd9 523e 39d4 aa3d fef9 41bb
00000300: 1ff5 093e 80a0 05bb 3523 03be 68ae 043d
00000310: 315e 36bd e0c6 5e3c 318c 83bc 9f4a 09be
00000320: 8e8c b53d c443 bcbc 8259 c23c 983d 00be
00000330: aecc 853b 7f88 6ebe 8801 c73c f181 ebbc
00000340: ed04 eebd 4664 abbd 0b5c a5bc d063 04bd
00000350: 76b0 133d f99c 0c3e ecf4 87bc 3a93 2a3d
00000360: 23af 04be 41e8 debd 9407 a6bd bc25 fb3d
00000370: ee6f 173a 07c9 b1ba fc06 df3d 2c58 2ebe
00000380: bd6e 723d 8217 debc ebe7 b6bd 5a0b e03d
00000390: 568f 993c 0125 a53d 4d99 e73c 8d27 633d
000003a0: 14b4 cebd c1a6 91bd dc17 b6bc a844 00be
000003b0: 54cc 45bd 4e04 8fbd b9d2 02be 6b86 94bd
000003c0: 09a5 69bd b4ac 1b3c 8dd5 4ebd 78f4 c7bd
000003d0: b9af dabc c86f fdbd e672 d0bd 7134 3bbc
000003e0: d7cc 22bd be5f 8f3b d149 01be 5685 30be
000003f0: a8cd 04be 95cc 183d 2a67 b2bd 87ee 033e

lstm.weight_hh_l0 f4 [256, 64]
0.060118195 -0.025527608 0.007430023 0.02596677 -0.04806191 -0.12879285 -0.09444394 0.042569384
-0.029054182 -0.00848132 -0.11563065 -0.0025955476 0.13110091 0.13571541 -0.14684127 -0.10558945
0.04857478 -0.037029814 -0.03441201 -0.038673684 0.024184234 0.013501634 -0.036920965 0.014055673
0.029535979 -0.0009497929 0.04760883 -0.10578964 -0.095016524 -0.059717875 0.025176577 -0.036091484
0.2141379 0.0637257 0.15899034 0.060314804 -0.05921851 -0.01695057 0.16306669 -0.097020954
-0.028083032 -0.020521782 -0.13437589 0.16297112 -0.071106106 -0.030321222 -0.022022456 -0.14133596
-0.032526527 0.18937306 0.07418932 0.05762851 0.092887625 -0.19747806 0.04879608 0.02544979
-0.039689105 -0.016152494 0.079284385 -0.1123339 -0.11432668 -0.0067935307 -0.14762937 0.1516829
-0.11453786 -0.07855775 -0.07699532 0.050467122 -0.1852983 -0.08936336 -0.13404614 -0.092207335
0.15443821 0.0879577 0.068623 -0.09397056 0.1535915 0.14744933 0.029295448 -0.10225843
0.12476168 -0.07937764 0.04655042 0.042649653 -0.00012666988 -0.14525972 -0.017302627 0.04074618
0.10679183 -0.16441065 -0.071031146 -0.089567386 0.0037238752 0.08988098 0.070808634 0.06311627
0.025545193 0.0013139783 0.10484713 0.15472296 0.1602899 0.031299464 0.17198862 -0.12523662
-0.021399347 0.12143247 -0.11051014 0.16770516 -0.076625854 -0.036155522 0.05483608 0.013895314
0.013523422 0.15867643 0.022597307 0.06543382 0.008708984 0.013373416 0.0009603286 0.020101799
-0.006087943 -0.008894453 0.11233825 0.10748466 0.101939015 0.032063674 -0.09748243 0.12648606
0.025256332 0.04390595 0.033517864 0.08603557 0.01773882 0.009080417 0.0044923886 0.15853257
0.025816124 -0.122162245 0.00083057256 0.121361844 -0.05417587 0.07143512 0.03137399 -0.1721527
0.08001314 0.06172066 0.0897109 0.08660526 0.12756647 0.09820041 -0.07845242 -0.085417315
-0.05388575 -0.025163181 -0.007531191 -0.11674356 0.011887169 0.050600845 0.03188463 0.047472924
-0.015185805 0.0056091407 0.048211146 -0.06760725 0.049032144 -0.0677075 -0.093863785 0.046361823
-0.08463981 -0.013308126 -0.058476992 -0.08614384 0.08644568 0.12783834 -0.064380206 0.101940945
0.078161374 -0.008722267 -0.056907732 0.04028329 0.1131201 -0.11292161 0.07362712 0.0899506
-0.009070834 -0.14582355 0.012157054 -0.0153392 0.060333088 0.0118248295 0.113253266 -0.07273043
-0.12285055 0.054812104 0.06802509 0.04939034 -0.07955248 -0.14338507 0.069875285 0.002031331
0.15839696 -0.15915743 0.05574607 0.10956114 0.149379 0.039664093 -0.089199625 -0.05223702
-0.00087661925 -0.07557733 -0.013496951 -0.10049751 0.02499568 0.0073815435 0.045581352 0.071556084
-0.0654472 0.059592824 0.039590698 -0.10904357 -0.056399163 0.016279064 -0.0015136503 0.06302467
-0.07506409 0.14069432 -0.036418896 0.14567901 0.1044349 0.07571524 -0.07819993 0.022307849
-0.054717362 0.0046180747 -0.055122055 -0.004018773 -0.1060389 -0.024568468 0.019672213 -0.04363602
-0.01617148 0.049737867 -0.022659862 -0.02397262 0.07462651 0.08259299 0.08827982 0.04130054
0.041889224 0.008260956 -0.09091984 -0.03072273 -0.09784194 -0.07534569 0.0025072645 -0.06163096
00000000: 7f3e 763d 461f d1bc 8d77 f33b 43b8 d43c
00000010: 91dc 44bd 46e2 03be d36b c1bd 3c5d 2e3d
00000020: 0903 eebc 3cf5 0abc c3cf ecbd 101a 2abb
00000030: 513f 063e fbf8 0a3e 8f5d 16be 483f d8bd
00000040: 59f6 463d 93ac 17bd 9cf3 0cbd 4c68 1ebd
00000050: 041e c63c f535 5d3c 703a 17bd c449 663c
00000060: 70f5 f13c 86fb 78ba 7a01 433d 3da8 d8bd
00000070: 0698 c2bd bb9a 74bd 1c3f ce3c aad4 13bd
00000080: f746 5b3e 9f82 823d 5dce 223e a80c 773d
00000090: 1c8f 72bd ecdb 8abc f4fa 263e ecb2 c6bd
000000a0: 630e e6bc 4c1d a8bc d599 09be e7e1 263e
000000b0: 14a0 91bd 3664 f8bc 7068 b4bc 60ba 10be
000000c0: 893a 05bd 03eb 413e 92f0 973d df0b 6c3d
000000d0: de3b be3d b037 4abe 66de 473d 147c d03c
000000e0: 0b91 22bd 3c52 84bc da5f a23d 510f e6bd
000000f0: 1b24 eabd 449c debb 272c 17be c352 1b3e
00000100: d392 eabd e3e2 a0bd b9af 9dbd 9db6 4e3d
00000110: d6be 3dbe 2304 b7bd 6443 09be 33d7 bcbd
00000120: 0d25 1e3e 2b23 b43d 378a 8c3d a373 c0bd
00000130: 1747 1d3e f5fc 163e 02fd ef3c de6c d1bd
00000140: 0d83 ff3d be90 a2bd a7ab 3e3d 67b1 2e3d
00000150: b0d2 04b9 f7be 14be 3dbe 8dbc 77e5 263d
00000160: adb5 da3d 445b 28be c778 91bd 1b6f b7bd
00000170: 420c 743b 8513 b83d 1e04 913d 1a43 813d
00000180: 2744 d13c cc39 ac3a 18ba d63d b26f 1e3e
00000190: 0923 243e de33 003d c91d 303e 073e 00be
000001a0: af4d afbc 96b1 f83d 2453 e2bd e7ba 2b3e
000001b0: 04ee 9cbd d017 14bd cc9b 603d 2ca9 633c
000001c0: 5891 5d3c 137c 223e fd1d b93c 2b02 863d
000001d0: 20b0 0e3c 2c1c 5b3c 90be 7b3a 87ac a43c
000001e0: 5e7d c7bb 0aba 11bc 9911 e63d eb20 dc3d
000001f0: 67c5 d03d 3355 033d dea4 c7bd 9085 013e
00000200: 5ee6 ce3c bad6 333d 074a 093d 6b33 b03d
00000210: 0051 913c 08c6 143c e334 933b 5d56 223e
00000220: 567c d33c 3330 fabd c8ba 593a 8f8c f83d
00000230: 84e7 5dbd 944c 923d 0382 003d cc48 30be
00000240: eedd a33d cece 7c3d 59ba b73d 195e b13d
00000250: c9a0 023e 4c1d c93d aaab a0bd 46ef aebd
00000260: 4eb7 5cbd 0423 cebc 36c8 f6bb 3f17 efbd
00000270: 67c2 423c d542 4f3d 7599 023d f872 423d
00000280: e2cd 78bc e2cc b73b 0d79 453d ab75 8abd
00000290: eed5 483d 3baa 8abd a83b c0bd e5e5 3d3d
000002a0: a357 adbd 530a 5abc 9285 6fbd 2e6c b0bd
000002b0: 6f0a b13d 0ee8 023e c5d9 83bd 6ac6 d03d
000002c0: 1213 a03d d7e7 0ebc 1518 69bd 1700 253d
000002d0: 83ab e73d 7243 e7bd d1c9 963d 0538 b83d
000002e0: d69d 14bc c552 15be 612e 473c 4551 7bbc
000002f0: d41f 773d eebc 413c 54f1 e73d b1f3 94bd
00000300: 1299 fbbd a882 603d bd50 8b3d 864d 4a3d
00000310: 69ec a2bd 89d3 12be c61a 8f3d 1420 053b
00000320: d032 223e 2afa 22be fe55 643d 9761 e03d
00000330: cff6 183e d176 223d 4bae b6bd 7cf6 55bd
00000340: eccc 65ba 4ac8 9abd 5122 5dbc a3d1 cdbd
00000350: bec3 cc3c e0e0 f13b 83b3 3a3d ff8b 923d
00000360: 2e09 86bd 9b17 743d db29 223d 3c52 dfbd
00000370: cf02 67bd ac5b 853c ad65 c6ba 1413 813d
00000380: 34bb 99bd 2c12 103e fb2b 15bd e12c 153e
00000390: f7e1 d53d 9710 9b3d 4927 a0bd f3be b63c
000003a0: 501f 60bd 3853 973b aac7 61bd e9af 83bb
000003b0: ec2a d9bd d043 c9bc 9f27 a13c afbb 32bd
000003c0: 0d7a 84bc efb9 4b3d 2da1 b9bc 3a62 c4bc
000003d0: c9d5 983d 8326 a93d 0dcc b43d c12a 293d
000003e0: 0994 2b3d f658 073c 2e34 babd 3cae fbbc
000003f0: 5b61 c8bd d74e 9abd eb50 243b bf70 7cbd

lstm.bias_ih_l0 f4 [256]
-0.123636626 -0.13647722 0.0032560597 -0.07718667 -0.07002441 0.02350162 0.0030644967 0.033765897
-0.0018337342 0.07473097 -0.009997316 -0.076977834 -0.1421402 -0.057691887 0.008186528 -0.08300559
-0.09884436 -0.12365192 -0.18905915 0.03831267 -0.1315392 -0.029849643 0.00032684667 0.009635882
-0.031892397 0.041085236 0.12196672 0.123433515 -0.040503785 0.051824752 0.08886636 -0.0726584
0.036139805 -0.07548875 -0.029387804 -0.05134158 0.08409726 0.1116478 0.044795554 -0.07534026
-0.110373005 -0.025488988 -0.11575525 -0.11643106 0.0056849336 0.07596763 -0.10724877 0.108300515
-0.11726916 0.06660949 0.04494127 0.05022578 0.057469174 -0.111205935 -0.004930073 0.069851585
-0.18546052 0.011927517 0.014647241 -0.092791945 -0.12827547 -0.14196014 -0.032591116 0.067681454
0.0067754504 0.035854258 -0.061466143 -0.061767284 -0.05614897 -0.07973611 -0.100527026 -0.0125458855
-0.072856575 -0.09837145 -0.021554338 -0.015226721 -0.044519573 0.01401328 0.034139916 -0.1315413
-0.1037976 -0.07814459 -0.035805847 0.01993668 -0.15961474 -0.031116892 0.011127073 -0.08673523
-0.041385416 -0.027951218 0.071982175 0.12084292 0.023726724 -0.061336633 0.1555841 0.055154145
-0.063626625 -0.154566 -0.013348536 -0.12751113 0.011940856 -0.15047383 -0.08225704 0.024312945
-0.121316895 -0.13961756 0.062414825 0.11273878 -0.0450669 0.06580814 0.10546397 0.023575189
-0.13432741 0.056140225 0.041331325 -0.14995086 -0.13659576 -0.10267096 -0.040833004 -0.04699449
-0.024897227 0.07233608 0.03792891 -0.017070709 -0.07303646 0.0046588676 0.05233547 -0.010324175
-0.008487934 -0.046548985 0.009428332 -0.07580847 -0.060152765 -0.008214402 0.104117826 -0.05079795
-0.10016426 0.09147868 0.074948356 0.011432982 -0.00957941 -0.014134096 -0.03912842 -0.024382863
-0.04244384 0.013156308 -0.07987768 -0.06426503 -0.008263178 0.08481497 0.010037962 -0.06790549
-0.03443638 0.007227096 -0.106674485 -0.08005218 -0.111632474 -0.007125641 0.010342275 0.072292596
0.037900634 -0.091298595 0.05169225 -0.019497925 0.09795563 0.07407949 0.11306019 -0.029531954
0.038477603 -0.07358176 0.08353069 0.029884234 0.036671378 0.07535525 -0.08088194 -0.10683149
0.031136768 0.049791943 -0.010120827 -0.03908254 -0.0037772974 0.118175074 -0.02171515 -0.047364764
0.033616085 -0.053884897 -0.10382928 -0.016329769 0.054587867 0.1019944 -0.13668877 -0.047703415
-0.08592598 -0.0419074 0.08934962 -0.15250011 -0.056746405 0.034742795 -0.021838682 -0.16437183
-0.06145006 0.0072982498 -0.03943869 -0.07097717 -0.0112312045 -0.054197237 0.014241122 -0.0036665322
-0.064196475 -0.05005758 0.014871395 -0.00042231707 0.02936207 -0.08185403 -0.16125114 -0.12191924
-0.0044074384 -0.06501224 0.030963445 -0.031971104 -0.018559307 -0.08295892 0.13543455 -0.086873256
-0.0070959795 -0.09009112 -0.052105337 0.020766957 -0.07301606 0.06421451 0.09264184 -0.030754425
-0.036792055 0.11113449 -0.081672095 0.08139309 -0.12210419 -0.11043776 -0.0070059844 -0.04287181
0.07110122 0.00066985056 -0.07163587 -0.0038686753 -0.14181584 -0.05551813 -0.15515023 -0.10957667
-0.0151448585 0.024909347 0.11330572 0.05324113 0.002215669 -0.04179517 -0.13300961 -0.17394707
00000000: 3335 fdbd afc0 0bbe 9e63 553b 0b14 9ebd
00000010: f568 8fbd 7886 c03c b9d5 483b 1c4e 0a3d
00000020: e959 f0ba 8d0c 993d c8cb 23bc 8ea6 9dbd
00000030: 338d 11be 544e 6cbd ca20 063c d6fe a9bd
00000040: e96e cabd 383d fdbd b998 41be bfed 1c3d
00000050: 36b2 06be 3d87 f4bc 9e5c ab39 d2df 1d3c
00000060: 9aa1 02bd fe48 283d b0c9 f93d b6ca fc3d
00000070: 4ce7 25bd 3146 543d 91ff b53d edcd 94bd
00000080: 5507 143d d999 9abd b1be f0bc 8c4b 52bd
00000090: 2f3b ac3d 9aa7 e43d 8b7b 373d ff4b 9abd
000000a0: 3e0b e2bd 48ce d0bc 1711 edbd 6873 eebd
000000b0: ae48 ba3b eb94 9b3d 3ea5 dbbd a9cc dd3d
000000c0: d02a f0bd 8e6a 883d 5614 383d 8cb9 4d3d
000000d0: cc64 6b3d f0bf e3bd 738c a1bb 590e 8f3d
000000e0: 5de9 3dbe a26b 433c fbfa 6f3c b409 bebd
000000f0: a55a 03be 005e 11be 437e 05bd 939c 8a3d
00000100: 9904 de3b eadb 123d ecc3 7bbd b1ff 7cbd
00000110: 76fc 65bd b04c a3bd 1de1 cdbd 428d 4dbc
00000120: d435 95bd f976 c9bd b992 b0bc 7f79 79bc
00000130: 285a 36bd f597 653c 4cd6 0b3d c3b2 06be
00000140: d693 d4bd 450a a0bd 27a9 12bd 4052 a33c
00000150: 0c72 23be dae8 febc 544e 363c 3ea2 b1bd
00000160: c183 29bd f4f9 e4bc 646b 933d 7e7c f73d
00000170: 8c5e c23c 1f3c 7bbd 7051 1f3e 50e9 613d
00000180: ad4e 82bd 8d46 1ebe d1b3 5abc 4792 02be
00000190: 95a3 433c d015 1abe 6176 a8bd f12b c73c
000001a0: fe74 f8bd e8f7 0ebe b0a6 7f3d 97e3 e63d
000001b0: 1298 38bd 6bc6 863d 7efd d73d c120 c13c
000001c0: 208d 09be 4bf3 653d 094b 293d b88c 19be
000001d0: c2df 0bbe 2745 d2bd 8240 27bd 4b7d 40bd
000001e0: 45f5 cbbc f024 943d 585b 1b3d dfd7 8bbc
000001f0: 2494 95bd 6aa9 983b b85d 563d ba26 29bc
00000200: fa10 0bbc 26aa 3ebd 4a79 1a3c 7941 9bbd
00000210: bf62 76bd b395 06bc ba3b d53d 8311 50bd
00000220: eb22 cdbd 2d59 bb3d 867e 993d 6751 3b3c
00000230: f5f2 1cbc b292 67bc 1f45 20bd 92be c7bc
00000240: 98d9 2dbd 8e8d 573c e996 a3bd 629d 83bd
00000250: 4862 07bc 79b3 ad3d 4476 243c 0912 8bbd
00000260: 290d 0dbd 46d1 ec3b 2778 dabd 66f2 a3bd
00000270: 919f e4bd 367e e9bb a572 293c 240e 943d
00000280: b23d 1b3d c2fa babd 41bb 533d 1dba 9fbc
00000290: f69c c83d fdb6 973d 1a8c e73d ffec f1bc
000002a0: b19a 1d3d 09b2 96bd 2312 ab3d c8cf f43c
000002b0: ba34 163d da53 9a3d 6ea5 a5bd 78ca dabd
000002c0: 8912 ff3c a3f2 4b3d d3d1 25bc 0315 20bd
000002d0: 898c 77bb c605 f23d f8e3 b1bc 8e01 42bd
000002e0: 05b1 093d 69b6 5cbd 72a4 d4bd 02c6 85bc
000002f0: 8797 5f3d 71e2 d03d 24f8 0bbe a864 43bd
00000300: f6f9 afbd 18a7 2bbd effc b63d fd28 1cbe
00000310: eb6e 68bd 764e 0e3d 09e7 b2bc 1751 28be
00000320: 0fb3 7bbd 2826 ef3b 778a 21bd 7a5c 91bd
00000330: 1603 38bc ecfd 5dbd 9853 693c 344a 70bb
00000340: 7179 83bd 2d09 4dbd 27a7 733c 706a ddb9
00000350: b988 f03c 16a3 a7bd 051f 25be cbb0 f9bd
00000360: 466c 90bb 2325 85bd 0da7 fd3c 22f4 02bd
00000370: b009 98bc 5ee6 a9bd 5baf 0a3e 9bea b1bd
00000380: 6485 e8bb b181 b8bd 686c 55bd 771f aa3c
00000390: 7289 95bd e682 833d 01bb bd3d b4f0 fbbc
000003a0: 44b3 16bd 7b9a e33d b343 a7bd 6cb1 a63d
000003b0: c311 fabd 312d e2bd 7592 e5bb 5a9a 2fbd
000003c0: 849d 913d e998 2f3a d4b5 92bd 9a89 7dbb
000003d0: 2c38 11be fb66 63bd b4df 1ebe bc69 e0bd
000003e0: 2422 78bc b00e cc3c d40c e83d 5f13 5a3d
000003f0: c234 113b 6a31 2bbd ac33 08be 2e1f 32be

lstm.bias_hh_l0 f4 [256]
-0.18472064 -0.04462692 0.0074338536 -0.16306226 -0.10878635 -0.035116978 -0.1055938 -0.014918877
-0.09058048 -0.09403454 -0.0130293295 0.0025646198 -0.04692473 -0.08958637 0.055661786 -0.02988606
0.063208774 -0.10549155 -0.023346303 0.043485 -0.06905381 0.043731283 -0.097235285 -0.120716624
-0.06541886 0.16560678 -0.022451924 -0.106406845 -0.12497037 0.038746756 0.09050708 -0.11256004
0.039994985 0.022308066 -0.16018213 0.060090538 0.039551888 0.10066344 -0.015872695 0.0701679
0.053929914 0.023537524 0.028630542 -0.05007872 0.08038608 -0.15088668 -0.084573455 0.12389568
-0.009183882 0.017772045 -0.05718141 -0.0793839 0.055788618 0.077509746 0.021882508 0.020988714
-0.014620453 0.07236293 -0.046589892 -0.019726252 -0.098537646 -0.1311641 -0.003048941 0.037719667
-0.020374242 -0.11496291 0.058394305 0.0030200933 -0.097382024 0.030087544 -0.121772476 -0.13443807
-0.09683664 0.05942698 -0.1267087 0.048220206 -0.07691578 -0.02758828 0.015197241 -0.10491454
0.0070897923 -0.115640886 -0.016134854 -0.011361305 -0.083105706 -0.041256458 -0.09636393 -0.11217092
-0.16317962 -0.01671261 0.10562821 -0.015283818 -0.036887605 -0.11648574 0.022783125 -0.13552862
-0.029818257 -0.14185384 -0.097454175 -0.09415941 -0.035050325 0.01699061 0.10206311 -0.077426195
0.014936994 -0.15154906 -0.14718142 0.03968719 0.07515919 -0.11834764 0.056757882 -0.11420579
0.047385763 0.043863975 -0.054214057 -0.0036090235 0.070445046 -0.041896995 -0.17510267 -0.06456078
-0.035912517 -0.012838863 0.016314799 0.06617416 -0.011002811 0.047410525 -0.039874885 0.0063836845
0.04614959 0.06289753 0.07120319 -0.00013088284 0.10092377 -0.050308697 0.05675613 -0.07737326
0.024729602 -0.109291114 0.03979994 0.13938132 -0.057531916 -0.043897696 0.04123688 0.10090399
-0.0113795595 -0.062069178 -0.075986855 0.024857424 -0.07902633 0.10012662 0.0879743 -0.06874805
-0.056024518 0.09779618 -0.012044263 0.04982289 -0.12780987 -0.10250072 -0.047619343 -0.037753947
0.01694072 0.09523165 -0.013799251 -0.07620936 -0.032738242 -0.15675189 -0.069244705 0.07628888
0.06530288 -0.10017633 9.5308e-05 -0.033154596 -0.008761117 -0.09205271 -0.08678627 -0.10674657
0.09985538 -0.089495316 0.09763661 -0.021039441 -0.057301894 -0.08344178 -0.001627546 -0.0026861024
0.018562233 0.12200713 -0.0857085 -0.01933384 -0.066979885 0.031518225 0.08346456 -0.01365586
-0.14210232 -0.16533594 0.009332852 0.030374937 0.00053337484 -0.1336027 0.002217371 -0.038198553
-0.10658566 -0.12871069 -0.026208235 -0.08675389 -0.0783439 -0.12674573 -0.11416988 -0.16862799
-0.048930246 0.048812922 -0.07083415 -0.078844056 -0.11751824 -0.02976809 -0.11397998 -0.014328215
-0.18315482 0.063355744 0.0011176317 -0.11005146 -0.0077342186 -0.010891654 -0.051159266 -0.077161886
0.08916055 0.0501988 -0.061191622 0.03093006 -0.02345589 0.13327196 -0.0996546 -0.06761967
0.052038774 -0.058423247 0.08853348 0.09811501 0.027859218 0.040500563 0.06393741 -0.10628471
0.0039639585 0.051491197 -0.095809996 -0.046679582 -0.036277678 0.07205107 -0.014951046 -0.026288975
0.0038231625 -0.043562777 -0.050451357 -0.17033261 -0.018137276 -0.049881723 -0.09669666 -0.16802354
00000000: 6827 3dbe b8ca 36bd af97 f33b cbf9 26be
00000010: 61cb debd d2d6 0fbd 9041 d8bd 4e6e 74bc
00000020: 4282 b9bd 2e95 c0bd f878 55bc 2e13 283b
00000030: 2534 40bd 0f79 b7bd 9dfd 633d 9cd3 f4bc
00000040: 9a73 813d f40b d8bd bf40 bfbc 541d 323d
00000050: 156c 8dbd 931f 333d 4b23 c7bd 473a f7bd
00000060: 53fa 85bd d394 293e 19ed b7bc d5eb d9bd
00000070: 77f0 ffbd ebb4 1e3d c75b b93d e185 e6bd
00000080: c8d1 233d 68bf b63c c906 24be 7f21 763d
00000090: 2901 223d a228 ce3d 7407 82bc 30b4 8f3d
000000a0: 9de5 5c3d c4d1 c03c 998a ea3c 581f 4dbd
000000b0: 75a1 a43d 0a82 1abe d934 adbd 05bd fd3d
000000c0: fe77 16bc ae96 913c 0e37 6abd 0794 a2bd
000000d0: 9b82 643d 6ebd 9e3d f242 b33c 86f0 ab3c
000000e0: a08a 6fbc 0433 943d 0bd5 3ebd f398 a1bc
000000f0: 1bce c9bd e24f 06be bed0 47bb f07f 1a3d
00000100: e2e7 a6bc ad71 ebbd de2e 6f3d c2ec 453b
00000110: 3a70 c7bd 277a f63c d963 f9bd 22aa 09be
00000120: 4a52 c6bd b469 733d edbf 01be 8d82 453d
00000130: 0586 9dbd d100 e2bc d9fd 783c 6fdd d6bd
00000140: 7d51 e83b 21d5 ecbd 3e2d 84bc c424 3abc
00000150: 5333 aabd 88fc 28bd 745a c5bd deb9 e5bd
00000160: 8f18 27be e2e8 88bc 9a53 d83d fb68 7abc
00000170: 7517 17bd 1390 eebd ada3 ba3c 04c8 0abe
00000180: 6b45 f4bc 2242 11be 0e96 c7bd a6d6 c0bd
00000190: ee90 0fbd e42f 8b3c 7706 d13d a091 9ebd
000001a0: 4bba 743c ad2f 1bbe bab6 16be 098f 223d
000001b0: 10ed 993d 3f60 f2bd f47a 683d bae4 e9bd
000001c0: 9317 423d b6aa 333d 8f0f 5ebd 5e85 6cbb
000001d0: 7e45 903d 2f9c 2bbd 1d4e 33be 7138 84bd
000001e0: 0119 13bd 185a 52bc 9da6 853c 5186 873d
000001f0: 2245 34bc 8a31 423d d953 23bd 3a2e d13b
00000200: 5a07 3d3d 6cd0 803d fad2 913d 983d 09b9
00000210: 1fb1 ce3d 7e10 4ebd 1e79 683d df75 9ebd
00000220: bc95 ca3c 05d4 dfbd 4305 233d fab9 0e3e
00000230: 96a6 6bbd 12ce 33bd 01e8 283d c0a6 ce3d
00000240: 5571 3abc 403c 7ebd ff9e 9bbd cca1 cb3c
00000250: 8ed8 a1bd 2f0f cd3d df2b b43d c7cb 8cbd
00000260: f779 65bd 5d49 c83d 4d55 45bc 1613 4c3d
00000270: 97e0 02be e6eb d1bd 800c 43bd e2a3 1abd
00000280: 44c7 8a3c d008 c33d 4116 62bc a713 9cbd
00000290: 8918 06bd 9183 20be 2bd0 8dbd 583d 9c3d
000002a0: 84bd 853d 3f29 cdbd 18e0 c738 1dcd 07bd
000002b0: ca8a 0fbc 2286 bcbd 00bd b1bd f29d dabd
000002c0: fa80 cc3d 5249 b7bd b4f5 c73d e85a acbc
000002d0: 64b5 6abd 86e3 aabd 6253 d5ba 5209 30bb
000002e0: d30f 983c e0de f93d f087 afbd 0062 9ebc
000002f0: c02c 89bd 4119 013d 78ef aa3d d4bc 5fbc
00000300: 4583 11be d34d 29be d2e8 183c dcd4 f83c
00000310: 2ed2 0b3a 25cf 08be 5051 113b 1676 1cbd
00000320: 9549 dabd bccc 03be a7b2 d6bc 06ac b1bd
00000330: c472 a0bd a2c9 01be e6d1 e9bd d1ac 2cbe
00000340: 156b 48bd 0ff0 473d 7f11 91bd fe78 a1bd
00000350: 67ad f0bd 36dc f3bc 566e e9bd e4c0 6abc
00000360: f08c 3bbe a8c0 813d 7f7d 923a a962 e1bd
00000370: 546f fdbb e872 32bc 618c 51bd 0d07 9ebd
00000380: ce99 b63d 429d 4d3d 11a4 7abd 0a61 fd3c
00000390: 9126 c0bc 7278 083e b617 ccbd 2e7c 8abd
000003a0: 9c26 553d 374d 6fbd 0b51 b53d 86f0 c83d
000003b0: 0439 e43c ebe3 253d 9ef1 823d ccab d9bd
000003c0: 18e4 813b 6fe8 523d 0838 c4bd 1733 3fbd
000003d0: e797 14bd 838f 933d 3bf5 74bc fa5b d7bc
000003e0: 068e 7a3b e26e 32bd 15a6 4ebd ac6b 2ebe
000003f0: a094 94bc c750 4cbd e608 c6bd 5d0e 2cbe

lstm.weight_ih_l1 f4 [256, 64]
-0.010161702 -0.02804295 -0.16925892 0.03019051 -0.07188271 -0.025193991 0.01588864 -0.11937668
0.13709226 -0.09578904 -0.15311323 -0.055516813 0.051262114 0.108721755 -0.15156431 0.058083307
0.13845114 -0.0137136625 -0.15312222 -0.12920779 0.0871884 0.07512419 -0.0050999653 -0.16375491
-0.070080005 -0.09489624 -0.14786173 0.048479352 -0.0755153 -0.1098757 -0.00023436733 0.08543187
0.07316279 0.06664692 0.05315505 0.08188282 -0.063977905 -0.013313349 0.088594146 -0.052042045
0.021072526 0.06753185 0.034686416 0.011103638 -0.0308992 0.08652177 -0.015250593 0.06716104
-0.0007129612 0.085433416 0.16888236 -0.013562169 0.045844596 0.035996214 0.0978538 0.08304722
-0.023189891 0.16450535 -0.14439388 -0.17773458 -0.10429945 -0.047808323 -0.1844076 0.15620269
-0.08641578 0.059591282 -0.08522785 -0.17770122 0.14621551 -0.1126095 -0.015316547 -0.0072046407
0.0006670906 -0.09822831 -0.14653973 -0.018402921 0.042188562 -0.013422314 -0.07558706 0.09478022
-0.14610441 0.025889052 -0.07090099 0.015027665 0.06796685 -0.09516856 -0.10199265 -0.10966324
0.14474304 0.0012563101 -0.012129756 -0.07173541 -0.059887525 -0.0981644 0.06980857 0.05529051
0.16600141 0.0154732345 -0.055534314 -0.08466302 -0.08840457 0.0076899594 -0.08467555 -0.013522837
-0.17036462 -0.0899003 0.027775312 -0.0048173144 -0.1375668 -0.052601527 0.09010159 -0.19032557
0.0206817 -0.0108431345 -0.029863741 0.04375311 -0.043561056 -0.16589603 0.104117274 0.036838498
-0.114044346 0.017054273 0.0043527153 -0.18628342 -0.05277056 0.050656244 -0.015281019 0.016108094
-0.070291 0.041740384 0.06184578 0.01822312 -0.06364429 0.12928188 0.027869273 0.050393898
-0.093724295 -0.15669458 -0.1452094 -0.10280257 0.08243668 -0.06397649 -0.051639296 -0.017948447
0.004198065 0.09202865 0.0028265421 0.13563478 0.21617451 0.07014449 -0.10344247 -0.053065892
-0.09753982 -0.08722551 -0.08745758 -0.029778117 -0.036280178 0.07422609 0.049294814 -0.10929106
-0.064141884 0.15608604 0.02715317 -0.048058514 -0.058527503 0.118576296 -0.096114814 -0.05005518
-0.104901955 0.12880075 0.071020074 0.057608306 -0.14502636 0.096443705 0.081442736 -0.009697287
0.013854384 -0.028413475 -0.057015184 0.092774495 -0.07133282 0.014689835 0.13927619 0.014497653
-0.090470046 -0.06874723 0.028536065 -0.051807716 0.10555759 -0.032547303 -0.13981739 0.06790657
0.05460551 0.058524065 -0.03510755 -0.10597667 0.035595074 0.0142965745 -0.13072662 0.12548882
0.13080283 0.11591423 -0.1741547 0.15006535 0.0853652 -0.078131795 -0.009421699 -0.14334089
-0.06070467 0.1178946 0.006536581 -0.08237704 0.11948239 0.08731462 -0.10316686 0.018406034
-0.046488866 -0.10870364 -0.037188336 -0.1470492 -0.038070746 0.09413788 -0.043367635 -0.0063205804
0.18287568 -0.04339262 -0.015478528 0.048762813 0.08240149 -0.101302974 0.04240763 -0.035336986
0.04365498 -0.036221 0.024336033 -0.065280534 -0.16759042 -0.03973261 -0.02410767 0.06868393
-0.07409032 0.15765572 -0.06074685 -0.031180369 0.0031235074 0.020427512 0.058592495 0.1658555
-0.04748018 -0.026305959 -0.15425007 -0.028337754 0.1296865 -0.09374622 -0.1462877 -0.040046655
00000000: 447d 26bc 54ba e5bc 3652 2dbe 1752 f73c
00000010: 3e37 93bd a163 cebc e528 823c c37b f4bd
00000020: ea61 0c3e 0b2d c4bd b7c9 1cbe 9965 63bd
00000030: 39f8 513d 83a9 de3d ad33 1bbe c3e8 6d3d
00000040: 23c6 0d3e 45af 60bc 12cc 1cbe 0c4f 04be
00000050: d58f b23d b6da 993d 9c1d a7bb 5eaf 27be
00000060: 1b86 8fbd f658 c2bd 1169 17be 4992 463d
00000070: c4a7 9abd 8306 e1bd 80c0 75b9 e7f6 ae3d
00000080: 5fd6 953d 2e7e 883d 1cb9 593d 2eb2 a73d
00000090: d906 83bd 3c20 5abc d970 b53d 0a2a 55bd
000000a0: 4aa0 ac3c 234e 8a3d 5813 0e3d 09ec 353c
000000b0: 5220 fdbc 5332 b13d a0dd 79bc ba8b 893d
000000c0: 04e6 3aba b7f7 ae3d 7fef 2c3e dc33 5ebc
000000d0: 8bc7 3b3d c470 133d 9367 c83d a914 aa3d
000000e0: baf8 bdbc 1774 283e fddb 13be 0e00 36be
000000f0: f39a d5bd a9d2 43bd 59d5 3cbe 99f3 1f3e
00000100: c2fa b0bd fd15 743d f08b aebd 4ff7 35be
00000110: 85b9 153e cf9f e6bd 41f2 7abc e814 ecbb
00000120: b1df 2e3a ed2b c9bd 830e 16be b9c1 96bc
00000130: eacd 2c3d 44e9 5bbc 63cd 9abd 221c c23d
00000140: 659c 15be 4715 d43c 8a34 91bd 9836 763c
00000150: 3432 8b3d bce7 c2bd 86e1 d0bd 1f97 e0bd
00000160: 8537 143e c6aa a43a e2bb 46bc 04ea 92bd
00000170: 9f4c 75bd 6b0a c9bd ccf7 8e3d 4d78 623d
00000180: 46fc 293e 7383 7d3c f377 63bd ce63 adbd
00000190: 750d b5bd 0efc fb3b 606a adbd e48e 5dbc
000001a0: 1074 2ebe a61d b8bd 0d89 e33c 90da 9dbb
000001b0: 50de 0cbe b374 57bd 2f87 b83d b5e4 42be
000001c0: ab6c a93c 67a7 31bc cea4 f4bc 7636 333d
000001d0: 146d 32bd a6e0 29be 703b d53d f7e3 163d
000001e0: 1590 e9bd 67b5 8b3c 39a1 8e3b 15c1 3ebe
000001f0: f125 58bd ec7c 4f3d 3d5d 7abc 1ff5 833c
00000200: baf4 8fbd f7f7 2a3d 0052 7d3d a748 953c
00000210: f057 82bd 7862 043e 1a4e e43c d569 4e3d
00000220: 86f2 bfbd 8b74 20be c6b1 14be 278a d2bd
00000230: 90d4 a83d 1b06 83bd ba83 53bd 9f08 93bc
00000240: ec8f 893b 8479 bc3d 823d 393b d8e3 0a3e
00000250: da5c 5d3e eaa7 8f3d a5d9 d3bd 9f5b 59bd
00000260: f5c2 c7bd 4aa3 b2bd f61c b3bd 3df1 f3bc
00000270: 869a 14bd d903 983d 5ce9 493d fed3 dfbd
00000280: d25c 83bd 05d5 1f3e 5370 de3c 01d9 44bd
00000290: 89ba 6fbd 21d8 f23d d8d7 c4bd a906 4dbd
000002a0: d6d6 d6bd 58e4 033e f972 913d b0f6 6b3d
000002b0: ca81 14be 4784 c53d 73cb a63d 5fe1 1ebc
000002c0: 80fd 623c 60c3 e8bc c188 69bd 8e00 be3d
000002d0: f116 92bd a2ad 703c 6b9e 0e3e 9087 6d3c
000002e0: 5c48 b9bd 59cb 8cbd 77c4 e93c 5434 54bd
000002f0: 942e d83d 5250 05bd 4a2c 0fbe 9a12 8b3d
00000300: 07aa 5f3d eeb6 6f3d efcc 0fbd 4c0a d9bd
00000310: 24cc 113d 2e3c 6a3c 33dd 05be 2480 003e
00000320: 2df1 053e 7164 ed3d 9c55 32be bbaa 193e
00000330: f3d3 ae3d 9003 a0bd 785d 1abc f4c7 12be
00000340: 76a5 78bd b972 f13d d130 d63b 4bb5 a8bd
00000350: 2fb3 f43d 02d2 b23d 2649 d3bd 40c8 963c
00000360: 1c6b 3ebd 04a0 debd cc52 18bd 1194 16be
00000370: 12f0 1bbd 5ccb c03d 43a2 31bd df1c cfbb
00000380: c343 3b3e 76bc 31bd a799 7dbc 84bb 473d
00000390: 1dc2 a83d ef77 cfbd 9fb3 2d3d 84bd 10bd
000003a0: 90cf 323d 795c 14bd 5c5c c73c cdb1 85bd
000003b0: d39c 2bbe a9be 22bd 737d c5bc 29aa 8c3d
000003c0: aabc 97bd 8070 213e b0d1 78bd f96d ffbc
000003d0: c2b3 4c3b 9957 a73c affe 6f3d 06d6 293e
000003e0: 947a 42bd 987f d7bc bbf3 1dbe 9424 e8bc
000003f0: 8acc 043e 05fe bfbd 71cc 15be f607 24bd

lstm.weight_hh_l1 f4 [256, 64]
-0.057554394 0.081350714 -0.04196004 -0.09331559 -0.026151704 0.05742046 0.05364296 0.102356546
0.1019283 -0.019016301 -0.03416321 -0.0890053 0.0330766 -0.024891438 -0.11394034 -0.0375231
-0.022852361 0.02027724 -0.049163565 -0.060400892 -0.030694222 0.13583964 0.07104352 -0.045112256
-0.100543335 0.16688916 0.07912889 -0.044853542 -0.0015078888 0.13274845 -0.09869154 0.15083085
-0.07937762 0.036129206 0.03176908 0.12837957 0.0871359 -0.08153 0.00077340903 0.040759977
-0.022257155 -0.090385854 -0.08204097 0.14347906 -0.18113942 -0.029508106 -0.076492645 -0.082833834
-0.067935035 0.04384015 0.06144074 0.017788887 -0.039119557 0.09691909 -0.05071833 -0.011598839
-0.064942315 -0.09739436 -0.072817914 0.033979334 -0.09815685 0.14751522 -0.02264653 0.068454824
0.048155516 -0.008531662 0.021771874 0.06331351 0.10289526 0.050135754 0.045850705 0.051684394
0.17710344 -0.024077384 0.12267702 -0.056778524 0.1201443 -0.061555676 0.05063559 -0.03243411
-0.045237172 0.008083615 -0.12983216 0.027848836 -0.047462277 0.13471611 -0.15025504 0.15957165
-0.080488145 -0.0063862796 0.11438525 -0.008167513 0.01894195 -0.011235732 -0.021779688 0.1156233
-0.09963982 -0.03842762 -0.03443155 0.1501467 0.1538335 -0.022693254 -0.10992491 0.042344727
0.051136773 -0.032450106 -0.049319226 -0.021520099 0.046135813 -0.14761104 0.016986053 -0.013007835
-0.03568131 0.1484151 -0.011348171 -0.09617089 0.08733835 0.08548615 0.075253725 0.03157833
0.015680572 0.023536807 -0.13489668 -0.09557254 -0.15670691 0.11653897 0.034982383 -0.03920626
0.08193696 -0.120010555 -0.06423464 -0.07155485 0.02401116 0.08834101 -0.032206926 0.107087
-0.024723243 0.027245896 0.03214895 0.006896586 0.01018189 0.11112982 0.11476886 -0.016833438
0.074495375 0.060349543 -0.1040073 -0.08854657 0.1141577 0.15341468 -0.093240626 -0.083783425
0.082142144 0.06803181 0.08561209 -0.06791504 -0.12053042 0.0016815588 -0.035910126 0.040908273
-0.12725559 0.11068526 -0.107162304 0.0055027823 0.03597828 -0.045554537 0.009485662 0.023640078
-0.00738273 -0.1504886 -0.034750946 0.12029002 -0.05434182 0.03475804 -0.07631446 -0.015516986
0.14286311 0.11641086 -0.083418004 -0.06907826 0.12215754 0.08447085 -0.0581033 -0.10163858
-0.11192072 0.019221324 -0.046178106 -0.05846554 -0.058538247 0.118799336 0.078771256 -0.060284737
-0.0073718 -0.13287869 -0.077089235 -0.05855473 0.103216074 -0.10117343 0.09539569 0.121224165
-0.026930902 -0.024392676 -0.018428646 -0.08374007 -0.08087981 -0.07490939 0.05299376 0.102706686
-0.17723922 0.060823683 0.0007136734 0.03277991 0.14519982 0.094633356 -0.023397293 0.061769284
-0.110318325 0.08532356 0.0019707847 -0.15047993 -0.07892652 0.17089514 0.11847792 0.119823
-0.1396755 0.044544857 0.08089484 0.09854939 0.054434568 -0.16149914 -0.17786768 -0.08718603
0.060310457 0.001804562 0.18426883 0.038027838 -0.10313817 0.09479265 -0.12592468 0.0090323845
-0.015059496 0.07445683 0.085962996 0.1350311 -0.01127161 0.10588457 -0.04439598 -0.063086815
-0.14332879 -0.050805796 -0.0479926 -0.093495086 0.03680742 0.080281034 -0.09556434 -0.03488273
00000000: 28be 6bbd 349b a63d 4ade 2bbd 3e1c bfbd
00000010: 193c d6bc b731 6b3d b8b8 5b3d 4fa0 d13d
00000020: c9bf d03d 13c8 9bbc b9ee 0bbd 6948 b6bd
00000030: 547b 073d 21e9 cbbc 8e59 e9bd d2b1 19bd
00000040: e034 bbbc 741c a63c bc5f 49bd ed66 77bd
00000050: 7372 fbbc 8c19 0b3e 447f 913d a1c7 38bd
00000060: aae9 cdbd fee4 2a3e 540e a23d 59b8 37bd
00000070: 5aa4 c5ba 36ef 073e ca1e cabd 6773 1a3e
00000080: bc90 a2bd 38fc 133d 4b20 023d ef75 033e
00000090: 4f74 b23d 33f9 a6bd 9abe 4a3a eff3 263d
000000a0: a354 b6bc 381c b9bd 1905 a8bd 2dec 123e
000000b0: 9d7c 39be fcba f1bc 2da8 9cbd c9a4 a9bd
000000c0: 8621 8bbd bb91 333d 49a9 7b3d 00ba 913c
000000d0: d43b 20bd 847d c63d 06be 4fbd 0f09 3ebc
000000e0: 7a00 85bd b276 c7bd 8f21 95bd ea2d 0b3d
000000f0: 7506 c9bd 3b0e 173e 3785 b9bc 0b32 8c3d
00000100: b83e 453d 62c8 0bbc ee5a b23c 83aa 813d
00000110: c0ba d23d 265b 4d3d f3cd 3b3d 04b3 533d
00000120: 9b5a 353e ef3d c5bc 173e fb3d 9990 68bd
00000130: 370e f63d ce21 7cbd 4467 4f3d a1d9 04bd
00000140: 9d4a 39bd 2471 043c b9f2 04be 3e23 e43c
00000150: ce67 42bd 05f3 093e 75dc 19be c066 233e
00000160: f8d6 a4bd ff43 d1bb d042 ea3d 08d1 05bc
00000170: 262c 9b3c 1316 38bc 516b b2bc e9cb ec3d
00000180: f60f ccbd 4866 1dbd 1908 0dbd 0ec0 193e
00000190: 8786 1d3e 34e7 b9bc 5020 e1bd aa71 2d3d
000001a0: cb74 513d 67ea 04bd f502 4abd eb4a b0bc
000001b0: e8f8 3c3d 5927 17be 5626 8b3c d01e 55bc
000001c0: 9126 12bd 21fa 173e aeed 39bc 3ef5 c4bd
000001d0: 73de b23d 5d13 af3d a01e 9a3d 4758 013d
000001e0: 8b74 803c 43d0 c03c 5b22 0abe 89bb c3bd
000001f0: c777 20be fcab ee3d b049 0f3d be96 20bd
00000200: 91ce a73d 18c8 f5bd 738d 83bd 598b 92bd
00000210: 0db3 c43c 22ec b43d 69eb 03bd 6e50 db3d
00000220: 6688 cabc c932 df3c 9eae 033d c2fc e13b
00000230: f1d1 263c 0898 e33d f00b eb3d 47e6 89bc
00000240: 0891 983d 1531 773d c801 d5bd e757 b5bd
00000250: 83cb e93d bd18 1d3e f1f4 bebd a596 abbd
00000260: 243a a83d 4354 8b3d 6455 af3d 0a17 8bbd
00000270: a7d8 f6bd c067 dc3a 7f16 13bd 6f8f 273d
00000280: 4a4f 02be f4ae e23d e977 dbbd af50 b43b
00000290: f65d 133d 6597 3abd c069 1b3c d6a8 c13c
000002a0: d4ea f1bb af19 1abe 0257 0ebd 9d5a f63d
000002b0: 8795 5ebd 725e 0e3d c14a 9cbd f53a 7ebc
000002c0: b54a 123e d168 ee3d 0fd7 aabd e778 8dbd
000002d0: bb2d fa3d 0eff ac3d bafd 6dbd e327 d0bd
000002e0: b136 e5bd 0a76 9d3c 4125 3dbd 9079 6fbd
000002f0: cdc5 6fbd 114d f33d d352 a13d 21ed 76bd
00000300: 248f f1bb 5a11 08be f6e0 9dbd 16d7 6fbd
00000310: f362 d33d 0434 cfbd d15e c33d 6044 f83d
00000320: 329e dcbc 26d3 c7bc acf7 96bc ea7f abbd
00000330: 50a4 a5bd 186a 99bd fc0f 593d e257 d23d
00000340: 337e 35be 4122 793d d015 3b3a 3a44 063d
00000350: 43af 143e 22cf c13d aeab bfbc ca01 7d3d
00000360: 93ee e1bd 1ebe ae3d 4828 013b 6917 1abe
00000370: 3aa4 a1bd 23ff 2e3e 8da4 f23d c365 f53d
00000380: 1807 0fbe ab74 363d 32ac a53d 43d4 c93d
00000390: c8f6 5e3d 0860 25be f222 36be 978e b2bd
000003a0: 1908 773d 0e87 ec3a f8b0 3c3e 14c3 1b3d
000003b0: 1b3a d3bd a622 c23d 66f2 00be 91fc 133c
000003c0: 1bbc 76bc d37c 983d 5e0d b03d 9845 0a3e
000003d0: 8fac 38bc 02da d83d 8fd8 35bd a933 81bd
000003e0: c8c4 12be bd19 50bd e393 44bd 5a7a bfbd
000003f0: 61c3 163d 626a a43d 3db7 c3bd 32e1 0ebd

lstm.bias_ih_l1 f4 [256]
-0.13629621 0.04387563 -0.04187605 0.04969178 -0.006744147 0.108976796 0.03589378 -0.08074138
-0.122622475 -0.08404491 0.005117493 0.059397977 -0.118186064 -0.086713105 0.030227924 0.03492528
-0.0724434 0.06818835 0.04338951 -0.06990749 0.024889726 0.09722442 0.12598708 0.0633028
-0.059178825 -0.095445 -0.06749019 0.087295406 0.01136202 -0.021500548 0.08430545 0.0030990972
-0.011899972 -0.031885207 -0.10869421 -0.18887393 0.02675264 -0.04132719 -0.11023538 -0.1287787
0.020825038 -0.09504023 0.08949825 -0.002635563 -0.00392127 0.044585817 0.003057233 -0.112391844
-0.11446315 0.0036219943 -0.049463537 0.018611748 0.00021801295 0.024555655 0.04687007 -0.022765977
-0.10338231 -0.18742876 0.031082869 0.060932193 0.055383794 -0.057776973 0.020371605 -0.04316743
0.008493276 -0.005290918 -0.028926719 -0.13336961 0.07549197 0.13529287 0.037316285 0.06530259
0.0038767518 -0.103422545 -0.06100205 -0.075768955 -0.14167732 -0.089116104 -0.07483876 0.012118774
-0.036176212 -0.12599471 -0.15169337 -0.03920512 -0.18215369 -0.027973182 0.060002565 -0.08898204
0.041200493 -0.13477466 -0.13924712 -0.077218145 -0.12707497 0.08841982 -0.12559898 0.061531108
-0.122177966 0.019365853 -0.06222449 -0.09367538 -0.0614821 0.044562936 -0.016632453 0.068335116
0.038176306 -0.15359671 -0.05341227 -0.034957573 -0.16907541 -0.09812411 -0.1288788 0.058358446
0.029808557 0.13349706 0.052020572 -0.055833556 -0.13606234 -0.04475495 -0.016257085 -0.12477793
-0.109694146 -0.008875513 -0.10331758 -0.09531493 -0.077061795 -0.06816385 0.08901464 -0.09778101
-0.054908525 0.063695714 0.10667391 0.09006192 -0.13828613 0.032177787 -0.08746033 -0.044830844
-0.013856521 0.095515355 -0.05829967 0.061691836 -0.012017701 0.033319034 0.010975754 -0.07745246
0.11179325 -0.02811597 0.05854551 -0.027560987 -0.02993613 -0.019653022 0.060568847 -0.017259328
0.10373145 -0.0651259 -0.043798164 -0.025309876 -0.107284315 0.0035350136 0.030446233 -0.09201835
0.045388546 -0.03826352 -0.061719447 -0.06444074 0.040945224 -0.029861303 -0.038292255 0.041559305
-0.022883464 -0.042506404 -0.09124259 -0.09953001 -0.052134067 -0.09364137 0.00900721 -0.031312577
-0.05537523 -0.05822578 -0.07002801 -0.086418346 -0.114209786 0.013073743 0.051480133 0.09236998
-0.056623805 -0.040804908 0.12672667 -0.07984614 0.047987133 -0.092729285 0.036635116 0.08014925
-0.106587455 -0.14273997 -0.08685607 -0.0037564766 -0.05283642 -0.106604286 -0.075074285 0.023741657
0.003973279 -0.09086113 -0.13477238 0.008668313 -0.13749209 0.03840083 0.07731971 0.07867332
0.05541656 0.09840049 -0.01980943 0.0630564 0.037292715 -0.1254668 -0.07658981 0.014430914
0.07183099 -0.1475885 -0.08914544 0.014216472 -0.13648355 -0.12368249 0.105416 -0.022787562
0.06793619 -0.11278786 -0.07175922 0.021871429 0.10167929 -0.10626886 -0.120406374 -0.067065485
0.040262096 -0.001997244 -0.07174485 0.006682215 -0.17774633 -0.14231643 -0.0356351 -0.07278057
0.07371077 0.12123018 -0.1646131 -0.1270534 -0.17002359 0.01136061 0.009621238 0.073586985
-0.035963073 -0.102682635 0.10459662 -0.08795834 -0.058304567 -0.048160717 -0.068323985 0.038873836
00000000: 3c91 0bbe efb6 333d 3986 2bbd 9c89 4b3d
00000010: 01fe dcbb 3a2f df3d 5b05 133d bd5b a5bd
00000020: 7e21 fbbd bd1f acbd a5b0 a73b 4b4b 733d
00000030: 890b f2bd a496 b1bd 8da0 f73c cf0d 0f3d
00000040: 355d 94bd 55a6 8b3d 33b9 313d a82b 8fbd
00000050: 8ae5 cb3c 991d c73d c202 013e e6a4 813d
00000060: 7f65 72bd ab78 c3bd 4c38 8abd efc7 b23d
00000070: c427 3a3c eb21 b0bc 56a8 ac3d 391a 4b3b
00000080: 1af8 42bc 109a 02bd 129b debd 2b68 41be
00000090: 5a28 db3c b346 29bd 16c3 e1bd 90de 03be
000000a0: 4599 aa3c 74a4 c2bd dc4a b73d 69b9 2cbb
000000b0: ff7d 80bb 9e9f 363d dc5b 483b b22d e6bd
000000c0: a86b eabd fb5e 6d3b 479a 4abd aa77 983c
000000d0: 689a 6439 f128 c93c d5fa 3f3d b77f babc
000000e0: 1bba d3bd 53ed 3fbe 80a1 fe3c 0994 793d
000000f0: 1eda 623d 8ca7 6cbd 5ae2 a63c 55d0 30bd
00000100: 6227 0b3c 705f adbb baf7 ecbc 0b92 08be
00000110: 899b 9a3d 378a 0a3e f6d8 183d 5dbd 853d
00000120: 1a11 7e3b 33cf d3bd 49dd 79bd c12c 9bbd
00000130: dc13 11be 8182 b6bd 1045 99bd d28d 463c
00000140: 822d 14bd c204 01be 8255 1bbe 8c95 20bd
00000150: 7f86 3abe 0428 e5bc 40c5 753d 373c b6bd
00000160: d9c1 283d 5e02 0abe cc96 0ebe 8c24 9ebd
00000170: f11f 02be 7315 b53d 059d 00be 0b08 7c3d
00000180: 7138 fabd 23a5 9e3c 1bdf 7ebd e1d8 bfbd
00000190: a8d4 7bbd a087 363d c840 88bc 48f3 8b3d
000001a0: c25e 1c3d 7548 1dbe d3c6 5abd ac2f 0fbd
000001b0: 1b22 2dbe 4bf5 c8bd cef8 03be 4409 6f3d
000001c0: 1331 f43c 74b3 083e 8613 553d bab1 64bd
000001d0: ed53 0bbe f750 37bd 942d 85bc 928b ffbd
000001e0: 53a7 e0bd 9a6a 11bc 2b98 d3bd 7934 c3bd
000001f0: 93d2 9dbd 7d99 8bbd 4f4d b63d 6941 c8bd
00000200: c3e7 60bd e672 823d da77 da3d 6272 b83d
00000210: e19a 0dbe dbcc 033d 671e b3bd 8ca0 37bd
00000220: 7606 63bc 8e9d c33d a3cb 6ebd 94b0 7c3d
00000230: e4e5 44bc 8a79 083d a6d3 333c 659f 9ebd
00000240: dcf3 e43d 7653 e6bc 6bcd 6f3d 94c7 e1bc
00000250: 9d3c f5bc 60ff a0bc 0a17 783d 6f63 8dbc
00000260: 2871 d43d ba60 85bd b465 33bd a856 cfbc
00000270: e1b7 dbbd b0ab 673b 616a f93c 1e74 bcbd
00000280: 57e9 393d 35ba 1cbd 88cd 7cbd 82f9 83bd
00000290: 2eb6 273d b19f f4bc 57d8 1cbd 173a 2a3d
000002a0: 1a76 bbbc 321b 2ebd 65dd babd 64d6 cbbd
000002b0: 888a 55bd 0cc7 bfbd fa92 133c 9e41 00bd
000002c0: 23d1 62bd 287e 6ebd d86a 8fbd 1afc b0bd
000002d0: d2e6 e9bd 4133 563c d5dc 523d 792c bd3d
000002e0: 5dee 67bd 0c23 27bd a3c4 013e 6086 a3bd
000002f0: 288e 443d dae8 bdbd b40e 163d 4a25 a43d
00000300: 864a dabd 6d2a 12be 98e1 b1bd 382f 76bb
00000310: 006b 58bd 5953 dabd 8cc0 99bd dd7d c23c
00000320: 4832 823b 6615 babd c501 0abe 8a05 0e3c
00000330: baca 0cbe 304a 1d3d cc59 9e3d 7a1f a13d
00000340: 7afc 623d 3286 c93d 6347 a2bc b723 813d
00000350: 3fc0 183d 5e7a 00be 1edb 9cbd a46f 6c3c
00000360: 201c 933d 7121 17be e291 b6bd 35ec 683c
00000370: 58c2 0bbe 3f4d fdbd 58e4 d73d fbac babc
00000380: 2122 8b3d 52fd e6bd 7ff6 92bd b62b b33c
00000390: 3b3d d03d 7da3 d9bd 9e97 f6bd a159 89bd
000003a0: dee9 243d 32e4 02bb f7ee 92bd 7bf6 da3b
000003b0: 2203 36be 66bb 11be 1cf6 11bd fb0d 95bd
000003c0: acf5 963d 8747 f83d 5690 28be 491a 02be
000003d0: aa1a 2ebe da21 3a3c 66a2 1d3c c6b4 963d
000003e0: 044e 13bd 464b d2bd c136 d63d 8123 b4bd
000003f0: c5d0 6ebd 2c44 45bd 72ed 8bbd 2c3a 1f3d
